{"format": "layers-model", "generatedBy": "keras v2.2.4-tf", "convertedBy": "TensorFlow.js Converter v1.2.3", "modelTopology": {"keras_version": "2.2.4-tf", "backend": "tensorflow", "model_config": {"class_name": "Model", "config": {"name": "model", "layers": [{"name": "input_1", "class_name": "InputLayer", "config": {"batch_input_shape": [null, 19, 19, 18], "dtype": "float32", "sparse": false, "name": "input_1"}, "inbound_nodes": []}, {"name": "init_conv_block", "class_name": "Conv2D", "config": {"name": "init_conv_block", "trainable": true, "dtype": "float32", "filters": 256, "kernel_size": [3, 3], "strides": [1, 1], "padding": "same", "data_format": "channels_last", "dilation_rate": [1, 1], "activation": "linear", "use_bias": true, "kernel_initializer": {"class_name": "Zeros", "config": {}}, "bias_initializer": {"class_name": "Zeros", "config": {}}, "kernel_regularizer": null, "bias_regularizer": null, "activity_regularizer": null, "kernel_constraint": null, "bias_constraint": null}, "inbound_nodes": [[["input_1", 0, 0, {}]]]}, {"name": "init_batch_norm", "class_name": "BatchNormalization", "config": {"name": "init_batch_norm", "trainable": true, "dtype": "float32", "axis": [3], "momentum": 0.99, "epsilon": 1e-05, "center": false, "scale": false, "beta_initializer": {"class_name": "Zeros", "config": {}}, "gamma_initializer": {"class_name": "Ones", "config": {}}, "moving_mean_initializer": {"class_name": "Zeros", "config": {}}, "moving_variance_initializer": {"class_name": "Ones", "config": {}}, "beta_regularizer": null, "gamma_regularizer": null, "beta_constraint": null, "gamma_constraint": null}, "inbound_nodes": [[["init_conv_block", 0, 0, {}]]]}, {"name": "b_init_relu", "class_name": "Activation", "config": {"name": "b_init_relu", "trainable": true, "dtype": "float32", "activation": "relu"}, "inbound_nodes": [[["init_batch_norm", 0, 0, {}]]]}, {"name": "residual_1_0_conv_block", "class_name": "Conv2D", "config": {"name": "residual_1_0_conv_block", "trainable": true, "dtype": "float32", "filters": 256, "kernel_size": [3, 3], "strides": [1, 1], "padding": "same", "data_format": "channels_last", "dilation_rate": [1, 1], "activation": "linear", "use_bias": true, "kernel_initializer": {"class_name": "Zeros", "config": {}}, "bias_initializer": {"class_name": "Zeros", "config": {}}, "kernel_regularizer": null, "bias_regularizer": null, "activity_regularizer": null, "kernel_constraint": null, "bias_constraint": null}, "inbound_nodes": [[["b_init_relu", 0, 0, {}]]]}, {"name": "residual_1_0_batch_norm", "class_name": "BatchNormalization", "config": {"name": "residual_1_0_batch_norm", "trainable": true, "dtype": "float32", "axis": [3], "momentum": 0.99, "epsilon": 1e-05, "center": false, "scale": false, "beta_initializer": {"class_name": "Zeros", "config": {}}, "gamma_initializer": {"class_name": "Ones", "config": {}}, "moving_mean_initializer": {"class_name": "Zeros", "config": {}}, "moving_variance_initializer": {"class_name": "Ones", "config": {}}, "beta_regularizer": null, "gamma_regularizer": null, "beta_constraint": null, "gamma_constraint": null}, "inbound_nodes": [[["residual_1_0_conv_block", 0, 0, {}]]]}, {"name": "b_residual_1_0_relu", "class_name": "Activation", "config": {"name": "b_residual_1_0_relu", "trainable": true, "dtype": "float32", "activation": "relu"}, "inbound_nodes": [[["residual_1_0_batch_norm", 0, 0, {}]]]}, {"name": "residual_2_0_conv_block", "class_name": "Conv2D", "config": {"name": "residual_2_0_conv_block", "trainable": true, "dtype": "float32", "filters": 256, "kernel_size": [3, 3], "strides": [1, 1], "padding": "same", "data_format": "channels_last", "dilation_rate": [1, 1], "activation": "linear", "use_bias": true, "kernel_initializer": {"class_name": "Zeros", "config": {}}, "bias_initializer": {"class_name": "Zeros", "config": {}}, "kernel_regularizer": null, "bias_regularizer": null, "activity_regularizer": null, "kernel_constraint": null, "bias_constraint": null}, "inbound_nodes": [[["b_residual_1_0_relu", 0, 0, {}]]]}, {"name": "residual_2_0_batch_norm", "class_name": "BatchNormalization", "config": {"name": "residual_2_0_batch_norm", "trainable": true, "dtype": "float32", "axis": [3], "momentum": 0.99, "epsilon": 1e-05, "center": false, "scale": false, "beta_initializer": {"class_name": "Zeros", "config": {}}, "gamma_initializer": {"class_name": "Ones", "config": {}}, "moving_mean_initializer": {"class_name": "Zeros", "config": {}}, "moving_variance_initializer": {"class_name": "Ones", "config": {}}, "beta_regularizer": null, "gamma_regularizer": null, "beta_constraint": null, "gamma_constraint": null}, "inbound_nodes": [[["residual_2_0_conv_block", 0, 0, {}]]]}, {"name": "add_0", "class_name": "Add", "config": {"name": "add_0", "trainable": true, "dtype": "float32"}, "inbound_nodes": [[["b_init_relu", 0, 0, {}], ["residual_2_0_batch_norm", 0, 0, {}]]]}, {"name": "b_0_relu", "class_name": "Activation", "config": {"name": "b_0_relu", "trainable": true, "dtype": "float32", "activation": "relu"}, "inbound_nodes": [[["add_0", 0, 0, {}]]]}, {"name": "residual_1_1_conv_block", "class_name": "Conv2D", "config": {"name": "residual_1_1_conv_block", "trainable": true, "dtype": "float32", "filters": 256, "kernel_size": [3, 3], "strides": [1, 1], "padding": "same", "data_format": "channels_last", "dilation_rate": [1, 1], "activation": "linear", "use_bias": true, "kernel_initializer": {"class_name": "Zeros", "config": {}}, "bias_initializer": {"class_name": "Zeros", "config": {}}, "kernel_regularizer": null, "bias_regularizer": null, "activity_regularizer": null, "kernel_constraint": null, "bias_constraint": null}, "inbound_nodes": [[["b_0_relu", 0, 0, {}]]]}, {"name": "residual_1_1_batch_norm", "class_name": "BatchNormalization", "config": {"name": "residual_1_1_batch_norm", "trainable": true, "dtype": "float32", "axis": [3], "momentum": 0.99, "epsilon": 1e-05, "center": false, "scale": false, "beta_initializer": {"class_name": "Zeros", "config": {}}, "gamma_initializer": {"class_name": "Ones", "config": {}}, "moving_mean_initializer": {"class_name": "Zeros", "config": {}}, "moving_variance_initializer": {"class_name": "Ones", "config": {}}, "beta_regularizer": null, "gamma_regularizer": null, "beta_constraint": null, "gamma_constraint": null}, "inbound_nodes": [[["residual_1_1_conv_block", 0, 0, {}]]]}, {"name": "b_residual_1_1_relu", "class_name": "Activation", "config": {"name": "b_residual_1_1_relu", "trainable": true, "dtype": "float32", "activation": "relu"}, "inbound_nodes": [[["residual_1_1_batch_norm", 0, 0, {}]]]}, {"name": "residual_2_1_conv_block", "class_name": "Conv2D", "config": {"name": "residual_2_1_conv_block", "trainable": true, "dtype": "float32", "filters": 256, "kernel_size": [3, 3], "strides": [1, 1], "padding": "same", "data_format": "channels_last", "dilation_rate": [1, 1], "activation": "linear", "use_bias": true, "kernel_initializer": {"class_name": "Zeros", "config": {}}, "bias_initializer": {"class_name": "Zeros", "config": {}}, "kernel_regularizer": null, "bias_regularizer": null, "activity_regularizer": null, "kernel_constraint": null, "bias_constraint": null}, "inbound_nodes": [[["b_residual_1_1_relu", 0, 0, {}]]]}, {"name": "residual_2_1_batch_norm", "class_name": "BatchNormalization", "config": {"name": "residual_2_1_batch_norm", "trainable": true, "dtype": "float32", "axis": [3], "momentum": 0.99, "epsilon": 1e-05, "center": false, "scale": false, "beta_initializer": {"class_name": "Zeros", "config": {}}, "gamma_initializer": {"class_name": "Ones", "config": {}}, "moving_mean_initializer": {"class_name": "Zeros", "config": {}}, "moving_variance_initializer": {"class_name": "Ones", "config": {}}, "beta_regularizer": null, "gamma_regularizer": null, "beta_constraint": null, "gamma_constraint": null}, "inbound_nodes": [[["residual_2_1_conv_block", 0, 0, {}]]]}, {"name": "add_1", "class_name": "Add", "config": {"name": "add_1", "trainable": true, "dtype": "float32"}, "inbound_nodes": [[["b_0_relu", 0, 0, {}], ["residual_2_1_batch_norm", 0, 0, {}]]]}, {"name": "b_1_relu", "class_name": "Activation", "config": {"name": "b_1_relu", "trainable": true, "dtype": "float32", "activation": "relu"}, "inbound_nodes": [[["add_1", 0, 0, {}]]]}, {"name": "residual_1_2_conv_block", "class_name": "Conv2D", "config": {"name": "residual_1_2_conv_block", "trainable": true, "dtype": "float32", "filters": 256, "kernel_size": [3, 3], "strides": [1, 1], "padding": "same", "data_format": "channels_last", "dilation_rate": [1, 1], "activation": "linear", "use_bias": true, "kernel_initializer": {"class_name": "Zeros", "config": {}}, "bias_initializer": {"class_name": "Zeros", "config": {}}, "kernel_regularizer": null, "bias_regularizer": null, "activity_regularizer": null, "kernel_constraint": null, "bias_constraint": null}, "inbound_nodes": [[["b_1_relu", 0, 0, {}]]]}, {"name": "residual_1_2_batch_norm", "class_name": "BatchNormalization", "config": {"name": "residual_1_2_batch_norm", "trainable": true, "dtype": "float32", "axis": [3], "momentum": 0.99, "epsilon": 1e-05, "center": false, "scale": false, "beta_initializer": {"class_name": "Zeros", "config": {}}, "gamma_initializer": {"class_name": "Ones", "config": {}}, "moving_mean_initializer": {"class_name": "Zeros", "config": {}}, "moving_variance_initializer": {"class_name": "Ones", "config": {}}, "beta_regularizer": null, "gamma_regularizer": null, "beta_constraint": null, "gamma_constraint": null}, "inbound_nodes": [[["residual_1_2_conv_block", 0, 0, {}]]]}, {"name": "b_residual_1_2_relu", "class_name": "Activation", "config": {"name": "b_residual_1_2_relu", "trainable": true, "dtype": "float32", "activation": "relu"}, "inbound_nodes": [[["residual_1_2_batch_norm", 0, 0, {}]]]}, {"name": "residual_2_2_conv_block", "class_name": "Conv2D", "config": {"name": "residual_2_2_conv_block", "trainable": true, "dtype": "float32", "filters": 256, "kernel_size": [3, 3], "strides": [1, 1], "padding": "same", "data_format": "channels_last", "dilation_rate": [1, 1], "activation": "linear", "use_bias": true, "kernel_initializer": {"class_name": "Zeros", "config": {}}, "bias_initializer": {"class_name": "Zeros", "config": {}}, "kernel_regularizer": null, "bias_regularizer": null, "activity_regularizer": null, "kernel_constraint": null, "bias_constraint": null}, "inbound_nodes": [[["b_residual_1_2_relu", 0, 0, {}]]]}, {"name": "residual_2_2_batch_norm", "class_name": "BatchNormalization", "config": {"name": "residual_2_2_batch_norm", "trainable": true, "dtype": "float32", "axis": [3], "momentum": 0.99, "epsilon": 1e-05, "center": false, "scale": false, "beta_initializer": {"class_name": "Zeros", "config": {}}, "gamma_initializer": {"class_name": "Ones", "config": {}}, "moving_mean_initializer": {"class_name": "Zeros", "config": {}}, "moving_variance_initializer": {"class_name": "Ones", "config": {}}, "beta_regularizer": null, "gamma_regularizer": null, "beta_constraint": null, "gamma_constraint": null}, "inbound_nodes": [[["residual_2_2_conv_block", 0, 0, {}]]]}, {"name": "add_2", "class_name": "Add", "config": {"name": "add_2", "trainable": true, "dtype": "float32"}, "inbound_nodes": [[["b_1_relu", 0, 0, {}], ["residual_2_2_batch_norm", 0, 0, {}]]]}, {"name": "b_2_relu", "class_name": "Activation", "config": {"name": "b_2_relu", "trainable": true, "dtype": "float32", "activation": "relu"}, "inbound_nodes": [[["add_2", 0, 0, {}]]]}, {"name": "residual_1_3_conv_block", "class_name": "Conv2D", "config": {"name": "residual_1_3_conv_block", "trainable": true, "dtype": "float32", "filters": 256, "kernel_size": [3, 3], "strides": [1, 1], "padding": "same", "data_format": "channels_last", "dilation_rate": [1, 1], "activation": "linear", "use_bias": true, "kernel_initializer": {"class_name": "Zeros", "config": {}}, "bias_initializer": {"class_name": "Zeros", "config": {}}, "kernel_regularizer": null, "bias_regularizer": null, "activity_regularizer": null, "kernel_constraint": null, "bias_constraint": null}, "inbound_nodes": [[["b_2_relu", 0, 0, {}]]]}, {"name": "residual_1_3_batch_norm", "class_name": "BatchNormalization", "config": {"name": "residual_1_3_batch_norm", "trainable": true, "dtype": "float32", "axis": [3], "momentum": 0.99, "epsilon": 1e-05, "center": false, "scale": false, "beta_initializer": {"class_name": "Zeros", "config": {}}, "gamma_initializer": {"class_name": "Ones", "config": {}}, "moving_mean_initializer": {"class_name": "Zeros", "config": {}}, "moving_variance_initializer": {"class_name": "Ones", "config": {}}, "beta_regularizer": null, "gamma_regularizer": null, "beta_constraint": null, "gamma_constraint": null}, "inbound_nodes": [[["residual_1_3_conv_block", 0, 0, {}]]]}, {"name": "b_residual_1_3_relu", "class_name": "Activation", "config": {"name": "b_residual_1_3_relu", "trainable": true, "dtype": "float32", "activation": "relu"}, "inbound_nodes": [[["residual_1_3_batch_norm", 0, 0, {}]]]}, {"name": "residual_2_3_conv_block", "class_name": "Conv2D", "config": {"name": "residual_2_3_conv_block", "trainable": true, "dtype": "float32", "filters": 256, "kernel_size": [3, 3], "strides": [1, 1], "padding": "same", "data_format": "channels_last", "dilation_rate": [1, 1], "activation": "linear", "use_bias": true, "kernel_initializer": {"class_name": "Zeros", "config": {}}, "bias_initializer": {"class_name": "Zeros", "config": {}}, "kernel_regularizer": null, "bias_regularizer": null, "activity_regularizer": null, "kernel_constraint": null, "bias_constraint": null}, "inbound_nodes": [[["b_residual_1_3_relu", 0, 0, {}]]]}, {"name": "residual_2_3_batch_norm", "class_name": "BatchNormalization", "config": {"name": "residual_2_3_batch_norm", "trainable": true, "dtype": "float32", "axis": [3], "momentum": 0.99, "epsilon": 1e-05, "center": false, "scale": false, "beta_initializer": {"class_name": "Zeros", "config": {}}, "gamma_initializer": {"class_name": "Ones", "config": {}}, "moving_mean_initializer": {"class_name": "Zeros", "config": {}}, "moving_variance_initializer": {"class_name": "Ones", "config": {}}, "beta_regularizer": null, "gamma_regularizer": null, "beta_constraint": null, "gamma_constraint": null}, "inbound_nodes": [[["residual_2_3_conv_block", 0, 0, {}]]]}, {"name": "add_3", "class_name": "Add", "config": {"name": "add_3", "trainable": true, "dtype": "float32"}, "inbound_nodes": [[["b_2_relu", 0, 0, {}], ["residual_2_3_batch_norm", 0, 0, {}]]]}, {"name": "b_3_relu", "class_name": "Activation", "config": {"name": "b_3_relu", "trainable": true, "dtype": "float32", "activation": "relu"}, "inbound_nodes": [[["add_3", 0, 0, {}]]]}, {"name": "residual_1_4_conv_block", "class_name": "Conv2D", "config": {"name": "residual_1_4_conv_block", "trainable": true, "dtype": "float32", "filters": 256, "kernel_size": [3, 3], "strides": [1, 1], "padding": "same", "data_format": "channels_last", "dilation_rate": [1, 1], "activation": "linear", "use_bias": true, "kernel_initializer": {"class_name": "Zeros", "config": {}}, "bias_initializer": {"class_name": "Zeros", "config": {}}, "kernel_regularizer": null, "bias_regularizer": null, "activity_regularizer": null, "kernel_constraint": null, "bias_constraint": null}, "inbound_nodes": [[["b_3_relu", 0, 0, {}]]]}, {"name": "residual_1_4_batch_norm", "class_name": "BatchNormalization", "config": {"name": "residual_1_4_batch_norm", "trainable": true, "dtype": "float32", "axis": [3], "momentum": 0.99, "epsilon": 1e-05, "center": false, "scale": false, "beta_initializer": {"class_name": "Zeros", "config": {}}, "gamma_initializer": {"class_name": "Ones", "config": {}}, "moving_mean_initializer": {"class_name": "Zeros", "config": {}}, "moving_variance_initializer": {"class_name": "Ones", "config": {}}, "beta_regularizer": null, "gamma_regularizer": null, "beta_constraint": null, "gamma_constraint": null}, "inbound_nodes": [[["residual_1_4_conv_block", 0, 0, {}]]]}, {"name": "b_residual_1_4_relu", "class_name": "Activation", "config": {"name": "b_residual_1_4_relu", "trainable": true, "dtype": "float32", "activation": "relu"}, "inbound_nodes": [[["residual_1_4_batch_norm", 0, 0, {}]]]}, {"name": "residual_2_4_conv_block", "class_name": "Conv2D", "config": {"name": "residual_2_4_conv_block", "trainable": true, "dtype": "float32", "filters": 256, "kernel_size": [3, 3], "strides": [1, 1], "padding": "same", "data_format": "channels_last", "dilation_rate": [1, 1], "activation": "linear", "use_bias": true, "kernel_initializer": {"class_name": "Zeros", "config": {}}, "bias_initializer": {"class_name": "Zeros", "config": {}}, "kernel_regularizer": null, "bias_regularizer": null, "activity_regularizer": null, "kernel_constraint": null, "bias_constraint": null}, "inbound_nodes": [[["b_residual_1_4_relu", 0, 0, {}]]]}, {"name": "residual_2_4_batch_norm", "class_name": "BatchNormalization", "config": {"name": "residual_2_4_batch_norm", "trainable": true, "dtype": "float32", "axis": [3], "momentum": 0.99, "epsilon": 1e-05, "center": false, "scale": false, "beta_initializer": {"class_name": "Zeros", "config": {}}, "gamma_initializer": {"class_name": "Ones", "config": {}}, "moving_mean_initializer": {"class_name": "Zeros", "config": {}}, "moving_variance_initializer": {"class_name": "Ones", "config": {}}, "beta_regularizer": null, "gamma_regularizer": null, "beta_constraint": null, "gamma_constraint": null}, "inbound_nodes": [[["residual_2_4_conv_block", 0, 0, {}]]]}, {"name": "add_4", "class_name": "Add", "config": {"name": "add_4", "trainable": true, "dtype": "float32"}, "inbound_nodes": [[["b_3_relu", 0, 0, {}], ["residual_2_4_batch_norm", 0, 0, {}]]]}, {"name": "b_4_relu", "class_name": "Activation", "config": {"name": "b_4_relu", "trainable": true, "dtype": "float32", "activation": "relu"}, "inbound_nodes": [[["add_4", 0, 0, {}]]]}, {"name": "residual_1_5_conv_block", "class_name": "Conv2D", "config": {"name": "residual_1_5_conv_block", "trainable": true, "dtype": "float32", "filters": 256, "kernel_size": [3, 3], "strides": [1, 1], "padding": "same", "data_format": "channels_last", "dilation_rate": [1, 1], "activation": "linear", "use_bias": true, "kernel_initializer": {"class_name": "Zeros", "config": {}}, "bias_initializer": {"class_name": "Zeros", "config": {}}, "kernel_regularizer": null, "bias_regularizer": null, "activity_regularizer": null, "kernel_constraint": null, "bias_constraint": null}, "inbound_nodes": [[["b_4_relu", 0, 0, {}]]]}, {"name": "residual_1_5_batch_norm", "class_name": "BatchNormalization", "config": {"name": "residual_1_5_batch_norm", "trainable": true, "dtype": "float32", "axis": [3], "momentum": 0.99, "epsilon": 1e-05, "center": false, "scale": false, "beta_initializer": {"class_name": "Zeros", "config": {}}, "gamma_initializer": {"class_name": "Ones", "config": {}}, "moving_mean_initializer": {"class_name": "Zeros", "config": {}}, "moving_variance_initializer": {"class_name": "Ones", "config": {}}, "beta_regularizer": null, "gamma_regularizer": null, "beta_constraint": null, "gamma_constraint": null}, "inbound_nodes": [[["residual_1_5_conv_block", 0, 0, {}]]]}, {"name": "b_residual_1_5_relu", "class_name": "Activation", "config": {"name": "b_residual_1_5_relu", "trainable": true, "dtype": "float32", "activation": "relu"}, "inbound_nodes": [[["residual_1_5_batch_norm", 0, 0, {}]]]}, {"name": "residual_2_5_conv_block", "class_name": "Conv2D", "config": {"name": "residual_2_5_conv_block", "trainable": true, "dtype": "float32", "filters": 256, "kernel_size": [3, 3], "strides": [1, 1], "padding": "same", "data_format": "channels_last", "dilation_rate": [1, 1], "activation": "linear", "use_bias": true, "kernel_initializer": {"class_name": "Zeros", "config": {}}, "bias_initializer": {"class_name": "Zeros", "config": {}}, "kernel_regularizer": null, "bias_regularizer": null, "activity_regularizer": null, "kernel_constraint": null, "bias_constraint": null}, "inbound_nodes": [[["b_residual_1_5_relu", 0, 0, {}]]]}, {"name": "residual_2_5_batch_norm", "class_name": "BatchNormalization", "config": {"name": "residual_2_5_batch_norm", "trainable": true, "dtype": "float32", "axis": [3], "momentum": 0.99, "epsilon": 1e-05, "center": false, "scale": false, "beta_initializer": {"class_name": "Zeros", "config": {}}, "gamma_initializer": {"class_name": "Ones", "config": {}}, "moving_mean_initializer": {"class_name": "Zeros", "config": {}}, "moving_variance_initializer": {"class_name": "Ones", "config": {}}, "beta_regularizer": null, "gamma_regularizer": null, "beta_constraint": null, "gamma_constraint": null}, "inbound_nodes": [[["residual_2_5_conv_block", 0, 0, {}]]]}, {"name": "add_5", "class_name": "Add", "config": {"name": "add_5", "trainable": true, "dtype": "float32"}, "inbound_nodes": [[["b_4_relu", 0, 0, {}], ["residual_2_5_batch_norm", 0, 0, {}]]]}, {"name": "b_5_relu", "class_name": "Activation", "config": {"name": "b_5_relu", "trainable": true, "dtype": "float32", "activation": "relu"}, "inbound_nodes": [[["add_5", 0, 0, {}]]]}, {"name": "residual_1_6_conv_block", "class_name": "Conv2D", "config": {"name": "residual_1_6_conv_block", "trainable": true, "dtype": "float32", "filters": 256, "kernel_size": [3, 3], "strides": [1, 1], "padding": "same", "data_format": "channels_last", "dilation_rate": [1, 1], "activation": "linear", "use_bias": true, "kernel_initializer": {"class_name": "Zeros", "config": {}}, "bias_initializer": {"class_name": "Zeros", "config": {}}, "kernel_regularizer": null, "bias_regularizer": null, "activity_regularizer": null, "kernel_constraint": null, "bias_constraint": null}, "inbound_nodes": [[["b_5_relu", 0, 0, {}]]]}, {"name": "residual_1_6_batch_norm", "class_name": "BatchNormalization", "config": {"name": "residual_1_6_batch_norm", "trainable": true, "dtype": "float32", "axis": [3], "momentum": 0.99, "epsilon": 1e-05, "center": false, "scale": false, "beta_initializer": {"class_name": "Zeros", "config": {}}, "gamma_initializer": {"class_name": "Ones", "config": {}}, "moving_mean_initializer": {"class_name": "Zeros", "config": {}}, "moving_variance_initializer": {"class_name": "Ones", "config": {}}, "beta_regularizer": null, "gamma_regularizer": null, "beta_constraint": null, "gamma_constraint": null}, "inbound_nodes": [[["residual_1_6_conv_block", 0, 0, {}]]]}, {"name": "b_residual_1_6_relu", "class_name": "Activation", "config": {"name": "b_residual_1_6_relu", "trainable": true, "dtype": "float32", "activation": "relu"}, "inbound_nodes": [[["residual_1_6_batch_norm", 0, 0, {}]]]}, {"name": "residual_2_6_conv_block", "class_name": "Conv2D", "config": {"name": "residual_2_6_conv_block", "trainable": true, "dtype": "float32", "filters": 256, "kernel_size": [3, 3], "strides": [1, 1], "padding": "same", "data_format": "channels_last", "dilation_rate": [1, 1], "activation": "linear", "use_bias": true, "kernel_initializer": {"class_name": "Zeros", "config": {}}, "bias_initializer": {"class_name": "Zeros", "config": {}}, "kernel_regularizer": null, "bias_regularizer": null, "activity_regularizer": null, "kernel_constraint": null, "bias_constraint": null}, "inbound_nodes": [[["b_residual_1_6_relu", 0, 0, {}]]]}, {"name": "residual_2_6_batch_norm", "class_name": "BatchNormalization", "config": {"name": "residual_2_6_batch_norm", "trainable": true, "dtype": "float32", "axis": [3], "momentum": 0.99, "epsilon": 1e-05, "center": false, "scale": false, "beta_initializer": {"class_name": "Zeros", "config": {}}, "gamma_initializer": {"class_name": "Ones", "config": {}}, "moving_mean_initializer": {"class_name": "Zeros", "config": {}}, "moving_variance_initializer": {"class_name": "Ones", "config": {}}, "beta_regularizer": null, "gamma_regularizer": null, "beta_constraint": null, "gamma_constraint": null}, "inbound_nodes": [[["residual_2_6_conv_block", 0, 0, {}]]]}, {"name": "add_6", "class_name": "Add", "config": {"name": "add_6", "trainable": true, "dtype": "float32"}, "inbound_nodes": [[["b_5_relu", 0, 0, {}], ["residual_2_6_batch_norm", 0, 0, {}]]]}, {"name": "b_6_relu", "class_name": "Activation", "config": {"name": "b_6_relu", "trainable": true, "dtype": "float32", "activation": "relu"}, "inbound_nodes": [[["add_6", 0, 0, {}]]]}, {"name": "residual_1_7_conv_block", "class_name": "Conv2D", "config": {"name": "residual_1_7_conv_block", "trainable": true, "dtype": "float32", "filters": 256, "kernel_size": [3, 3], "strides": [1, 1], "padding": "same", "data_format": "channels_last", "dilation_rate": [1, 1], "activation": "linear", "use_bias": true, "kernel_initializer": {"class_name": "Zeros", "config": {}}, "bias_initializer": {"class_name": "Zeros", "config": {}}, "kernel_regularizer": null, "bias_regularizer": null, "activity_regularizer": null, "kernel_constraint": null, "bias_constraint": null}, "inbound_nodes": [[["b_6_relu", 0, 0, {}]]]}, {"name": "residual_1_7_batch_norm", "class_name": "BatchNormalization", "config": {"name": "residual_1_7_batch_norm", "trainable": true, "dtype": "float32", "axis": [3], "momentum": 0.99, "epsilon": 1e-05, "center": false, "scale": false, "beta_initializer": {"class_name": "Zeros", "config": {}}, "gamma_initializer": {"class_name": "Ones", "config": {}}, "moving_mean_initializer": {"class_name": "Zeros", "config": {}}, "moving_variance_initializer": {"class_name": "Ones", "config": {}}, "beta_regularizer": null, "gamma_regularizer": null, "beta_constraint": null, "gamma_constraint": null}, "inbound_nodes": [[["residual_1_7_conv_block", 0, 0, {}]]]}, {"name": "b_residual_1_7_relu", "class_name": "Activation", "config": {"name": "b_residual_1_7_relu", "trainable": true, "dtype": "float32", "activation": "relu"}, "inbound_nodes": [[["residual_1_7_batch_norm", 0, 0, {}]]]}, {"name": "residual_2_7_conv_block", "class_name": "Conv2D", "config": {"name": "residual_2_7_conv_block", "trainable": true, "dtype": "float32", "filters": 256, "kernel_size": [3, 3], "strides": [1, 1], "padding": "same", "data_format": "channels_last", "dilation_rate": [1, 1], "activation": "linear", "use_bias": true, "kernel_initializer": {"class_name": "Zeros", "config": {}}, "bias_initializer": {"class_name": "Zeros", "config": {}}, "kernel_regularizer": null, "bias_regularizer": null, "activity_regularizer": null, "kernel_constraint": null, "bias_constraint": null}, "inbound_nodes": [[["b_residual_1_7_relu", 0, 0, {}]]]}, {"name": "residual_2_7_batch_norm", "class_name": "BatchNormalization", "config": {"name": "residual_2_7_batch_norm", "trainable": true, "dtype": "float32", "axis": [3], "momentum": 0.99, "epsilon": 1e-05, "center": false, "scale": false, "beta_initializer": {"class_name": "Zeros", "config": {}}, "gamma_initializer": {"class_name": "Ones", "config": {}}, "moving_mean_initializer": {"class_name": "Zeros", "config": {}}, "moving_variance_initializer": {"class_name": "Ones", "config": {}}, "beta_regularizer": null, "gamma_regularizer": null, "beta_constraint": null, "gamma_constraint": null}, "inbound_nodes": [[["residual_2_7_conv_block", 0, 0, {}]]]}, {"name": "add_7", "class_name": "Add", "config": {"name": "add_7", "trainable": true, "dtype": "float32"}, "inbound_nodes": [[["b_6_relu", 0, 0, {}], ["residual_2_7_batch_norm", 0, 0, {}]]]}, {"name": "b_7_relu", "class_name": "Activation", "config": {"name": "b_7_relu", "trainable": true, "dtype": "float32", "activation": "relu"}, "inbound_nodes": [[["add_7", 0, 0, {}]]]}, {"name": "residual_1_8_conv_block", "class_name": "Conv2D", "config": {"name": "residual_1_8_conv_block", "trainable": true, "dtype": "float32", "filters": 256, "kernel_size": [3, 3], "strides": [1, 1], "padding": "same", "data_format": "channels_last", "dilation_rate": [1, 1], "activation": "linear", "use_bias": true, "kernel_initializer": {"class_name": "Zeros", "config": {}}, "bias_initializer": {"class_name": "Zeros", "config": {}}, "kernel_regularizer": null, "bias_regularizer": null, "activity_regularizer": null, "kernel_constraint": null, "bias_constraint": null}, "inbound_nodes": [[["b_7_relu", 0, 0, {}]]]}, {"name": "residual_1_8_batch_norm", "class_name": "BatchNormalization", "config": {"name": "residual_1_8_batch_norm", "trainable": true, "dtype": "float32", "axis": [3], "momentum": 0.99, "epsilon": 1e-05, "center": false, "scale": false, "beta_initializer": {"class_name": "Zeros", "config": {}}, "gamma_initializer": {"class_name": "Ones", "config": {}}, "moving_mean_initializer": {"class_name": "Zeros", "config": {}}, "moving_variance_initializer": {"class_name": "Ones", "config": {}}, "beta_regularizer": null, "gamma_regularizer": null, "beta_constraint": null, "gamma_constraint": null}, "inbound_nodes": [[["residual_1_8_conv_block", 0, 0, {}]]]}, {"name": "b_residual_1_8_relu", "class_name": "Activation", "config": {"name": "b_residual_1_8_relu", "trainable": true, "dtype": "float32", "activation": "relu"}, "inbound_nodes": [[["residual_1_8_batch_norm", 0, 0, {}]]]}, {"name": "residual_2_8_conv_block", "class_name": "Conv2D", "config": {"name": "residual_2_8_conv_block", "trainable": true, "dtype": "float32", "filters": 256, "kernel_size": [3, 3], "strides": [1, 1], "padding": "same", "data_format": "channels_last", "dilation_rate": [1, 1], "activation": "linear", "use_bias": true, "kernel_initializer": {"class_name": "Zeros", "config": {}}, "bias_initializer": {"class_name": "Zeros", "config": {}}, "kernel_regularizer": null, "bias_regularizer": null, "activity_regularizer": null, "kernel_constraint": null, "bias_constraint": null}, "inbound_nodes": [[["b_residual_1_8_relu", 0, 0, {}]]]}, {"name": "residual_2_8_batch_norm", "class_name": "BatchNormalization", "config": {"name": "residual_2_8_batch_norm", "trainable": true, "dtype": "float32", "axis": [3], "momentum": 0.99, "epsilon": 1e-05, "center": false, "scale": false, "beta_initializer": {"class_name": "Zeros", "config": {}}, "gamma_initializer": {"class_name": "Ones", "config": {}}, "moving_mean_initializer": {"class_name": "Zeros", "config": {}}, "moving_variance_initializer": {"class_name": "Ones", "config": {}}, "beta_regularizer": null, "gamma_regularizer": null, "beta_constraint": null, "gamma_constraint": null}, "inbound_nodes": [[["residual_2_8_conv_block", 0, 0, {}]]]}, {"name": "add_8", "class_name": "Add", "config": {"name": "add_8", "trainable": true, "dtype": "float32"}, "inbound_nodes": [[["b_7_relu", 0, 0, {}], ["residual_2_8_batch_norm", 0, 0, {}]]]}, {"name": "b_8_relu", "class_name": "Activation", "config": {"name": "b_8_relu", "trainable": true, "dtype": "float32", "activation": "relu"}, "inbound_nodes": [[["add_8", 0, 0, {}]]]}, {"name": "residual_1_9_conv_block", "class_name": "Conv2D", "config": {"name": "residual_1_9_conv_block", "trainable": true, "dtype": "float32", "filters": 256, "kernel_size": [3, 3], "strides": [1, 1], "padding": "same", "data_format": "channels_last", "dilation_rate": [1, 1], "activation": "linear", "use_bias": true, "kernel_initializer": {"class_name": "Zeros", "config": {}}, "bias_initializer": {"class_name": "Zeros", "config": {}}, "kernel_regularizer": null, "bias_regularizer": null, "activity_regularizer": null, "kernel_constraint": null, "bias_constraint": null}, "inbound_nodes": [[["b_8_relu", 0, 0, {}]]]}, {"name": "residual_1_9_batch_norm", "class_name": "BatchNormalization", "config": {"name": "residual_1_9_batch_norm", "trainable": true, "dtype": "float32", "axis": [3], "momentum": 0.99, "epsilon": 1e-05, "center": false, "scale": false, "beta_initializer": {"class_name": "Zeros", "config": {}}, "gamma_initializer": {"class_name": "Ones", "config": {}}, "moving_mean_initializer": {"class_name": "Zeros", "config": {}}, "moving_variance_initializer": {"class_name": "Ones", "config": {}}, "beta_regularizer": null, "gamma_regularizer": null, "beta_constraint": null, "gamma_constraint": null}, "inbound_nodes": [[["residual_1_9_conv_block", 0, 0, {}]]]}, {"name": "b_residual_1_9_relu", "class_name": "Activation", "config": {"name": "b_residual_1_9_relu", "trainable": true, "dtype": "float32", "activation": "relu"}, "inbound_nodes": [[["residual_1_9_batch_norm", 0, 0, {}]]]}, {"name": "residual_2_9_conv_block", "class_name": "Conv2D", "config": {"name": "residual_2_9_conv_block", "trainable": true, "dtype": "float32", "filters": 256, "kernel_size": [3, 3], "strides": [1, 1], "padding": "same", "data_format": "channels_last", "dilation_rate": [1, 1], "activation": "linear", "use_bias": true, "kernel_initializer": {"class_name": "Zeros", "config": {}}, "bias_initializer": {"class_name": "Zeros", "config": {}}, "kernel_regularizer": null, "bias_regularizer": null, "activity_regularizer": null, "kernel_constraint": null, "bias_constraint": null}, "inbound_nodes": [[["b_residual_1_9_relu", 0, 0, {}]]]}, {"name": "residual_2_9_batch_norm", "class_name": "BatchNormalization", "config": {"name": "residual_2_9_batch_norm", "trainable": true, "dtype": "float32", "axis": [3], "momentum": 0.99, "epsilon": 1e-05, "center": false, "scale": false, "beta_initializer": {"class_name": "Zeros", "config": {}}, "gamma_initializer": {"class_name": "Ones", "config": {}}, "moving_mean_initializer": {"class_name": "Zeros", "config": {}}, "moving_variance_initializer": {"class_name": "Ones", "config": {}}, "beta_regularizer": null, "gamma_regularizer": null, "beta_constraint": null, "gamma_constraint": null}, "inbound_nodes": [[["residual_2_9_conv_block", 0, 0, {}]]]}, {"name": "add_9", "class_name": "Add", "config": {"name": "add_9", "trainable": true, "dtype": "float32"}, "inbound_nodes": [[["b_8_relu", 0, 0, {}], ["residual_2_9_batch_norm", 0, 0, {}]]]}, {"name": "b_9_relu", "class_name": "Activation", "config": {"name": "b_9_relu", "trainable": true, "dtype": "float32", "activation": "relu"}, "inbound_nodes": [[["add_9", 0, 0, {}]]]}, {"name": "residual_1_10_conv_block", "class_name": "Conv2D", "config": {"name": "residual_1_10_conv_block", "trainable": true, "dtype": "float32", "filters": 256, "kernel_size": [3, 3], "strides": [1, 1], "padding": "same", "data_format": "channels_last", "dilation_rate": [1, 1], "activation": "linear", "use_bias": true, "kernel_initializer": {"class_name": "Zeros", "config": {}}, "bias_initializer": {"class_name": "Zeros", "config": {}}, "kernel_regularizer": null, "bias_regularizer": null, "activity_regularizer": null, "kernel_constraint": null, "bias_constraint": null}, "inbound_nodes": [[["b_9_relu", 0, 0, {}]]]}, {"name": "residual_1_10_batch_norm", "class_name": "BatchNormalization", "config": {"name": "residual_1_10_batch_norm", "trainable": true, "dtype": "float32", "axis": [3], "momentum": 0.99, "epsilon": 1e-05, "center": false, "scale": false, "beta_initializer": {"class_name": "Zeros", "config": {}}, "gamma_initializer": {"class_name": "Ones", "config": {}}, "moving_mean_initializer": {"class_name": "Zeros", "config": {}}, "moving_variance_initializer": {"class_name": "Ones", "config": {}}, "beta_regularizer": null, "gamma_regularizer": null, "beta_constraint": null, "gamma_constraint": null}, "inbound_nodes": [[["residual_1_10_conv_block", 0, 0, {}]]]}, {"name": "b_residual_1_10_relu", "class_name": "Activation", "config": {"name": "b_residual_1_10_relu", "trainable": true, "dtype": "float32", "activation": "relu"}, "inbound_nodes": [[["residual_1_10_batch_norm", 0, 0, {}]]]}, {"name": "residual_2_10_conv_block", "class_name": "Conv2D", "config": {"name": "residual_2_10_conv_block", "trainable": true, "dtype": "float32", "filters": 256, "kernel_size": [3, 3], "strides": [1, 1], "padding": "same", "data_format": "channels_last", "dilation_rate": [1, 1], "activation": "linear", "use_bias": true, "kernel_initializer": {"class_name": "Zeros", "config": {}}, "bias_initializer": {"class_name": "Zeros", "config": {}}, "kernel_regularizer": null, "bias_regularizer": null, "activity_regularizer": null, "kernel_constraint": null, "bias_constraint": null}, "inbound_nodes": [[["b_residual_1_10_relu", 0, 0, {}]]]}, {"name": "residual_2_10_batch_norm", "class_name": "BatchNormalization", "config": {"name": "residual_2_10_batch_norm", "trainable": true, "dtype": "float32", "axis": [3], "momentum": 0.99, "epsilon": 1e-05, "center": false, "scale": false, "beta_initializer": {"class_name": "Zeros", "config": {}}, "gamma_initializer": {"class_name": "Ones", "config": {}}, "moving_mean_initializer": {"class_name": "Zeros", "config": {}}, "moving_variance_initializer": {"class_name": "Ones", "config": {}}, "beta_regularizer": null, "gamma_regularizer": null, "beta_constraint": null, "gamma_constraint": null}, "inbound_nodes": [[["residual_2_10_conv_block", 0, 0, {}]]]}, {"name": "add_10", "class_name": "Add", "config": {"name": "add_10", "trainable": true, "dtype": "float32"}, "inbound_nodes": [[["b_9_relu", 0, 0, {}], ["residual_2_10_batch_norm", 0, 0, {}]]]}, {"name": "b_10_relu", "class_name": "Activation", "config": {"name": "b_10_relu", "trainable": true, "dtype": "float32", "activation": "relu"}, "inbound_nodes": [[["add_10", 0, 0, {}]]]}, {"name": "residual_1_11_conv_block", "class_name": "Conv2D", "config": {"name": "residual_1_11_conv_block", "trainable": true, "dtype": "float32", "filters": 256, "kernel_size": [3, 3], "strides": [1, 1], "padding": "same", "data_format": "channels_last", "dilation_rate": [1, 1], "activation": "linear", "use_bias": true, "kernel_initializer": {"class_name": "Zeros", "config": {}}, "bias_initializer": {"class_name": "Zeros", "config": {}}, "kernel_regularizer": null, "bias_regularizer": null, "activity_regularizer": null, "kernel_constraint": null, "bias_constraint": null}, "inbound_nodes": [[["b_10_relu", 0, 0, {}]]]}, {"name": "residual_1_11_batch_norm", "class_name": "BatchNormalization", "config": {"name": "residual_1_11_batch_norm", "trainable": true, "dtype": "float32", "axis": [3], "momentum": 0.99, "epsilon": 1e-05, "center": false, "scale": false, "beta_initializer": {"class_name": "Zeros", "config": {}}, "gamma_initializer": {"class_name": "Ones", "config": {}}, "moving_mean_initializer": {"class_name": "Zeros", "config": {}}, "moving_variance_initializer": {"class_name": "Ones", "config": {}}, "beta_regularizer": null, "gamma_regularizer": null, "beta_constraint": null, "gamma_constraint": null}, "inbound_nodes": [[["residual_1_11_conv_block", 0, 0, {}]]]}, {"name": "b_residual_1_11_relu", "class_name": "Activation", "config": {"name": "b_residual_1_11_relu", "trainable": true, "dtype": "float32", "activation": "relu"}, "inbound_nodes": [[["residual_1_11_batch_norm", 0, 0, {}]]]}, {"name": "residual_2_11_conv_block", "class_name": "Conv2D", "config": {"name": "residual_2_11_conv_block", "trainable": true, "dtype": "float32", "filters": 256, "kernel_size": [3, 3], "strides": [1, 1], "padding": "same", "data_format": "channels_last", "dilation_rate": [1, 1], "activation": "linear", "use_bias": true, "kernel_initializer": {"class_name": "Zeros", "config": {}}, "bias_initializer": {"class_name": "Zeros", "config": {}}, "kernel_regularizer": null, "bias_regularizer": null, "activity_regularizer": null, "kernel_constraint": null, "bias_constraint": null}, "inbound_nodes": [[["b_residual_1_11_relu", 0, 0, {}]]]}, {"name": "residual_2_11_batch_norm", "class_name": "BatchNormalization", "config": {"name": "residual_2_11_batch_norm", "trainable": true, "dtype": "float32", "axis": [3], "momentum": 0.99, "epsilon": 1e-05, "center": false, "scale": false, "beta_initializer": {"class_name": "Zeros", "config": {}}, "gamma_initializer": {"class_name": "Ones", "config": {}}, "moving_mean_initializer": {"class_name": "Zeros", "config": {}}, "moving_variance_initializer": {"class_name": "Ones", "config": {}}, "beta_regularizer": null, "gamma_regularizer": null, "beta_constraint": null, "gamma_constraint": null}, "inbound_nodes": [[["residual_2_11_conv_block", 0, 0, {}]]]}, {"name": "add_11", "class_name": "Add", "config": {"name": "add_11", "trainable": true, "dtype": "float32"}, "inbound_nodes": [[["b_10_relu", 0, 0, {}], ["residual_2_11_batch_norm", 0, 0, {}]]]}, {"name": "b_11_relu", "class_name": "Activation", "config": {"name": "b_11_relu", "trainable": true, "dtype": "float32", "activation": "relu"}, "inbound_nodes": [[["add_11", 0, 0, {}]]]}, {"name": "residual_1_12_conv_block", "class_name": "Conv2D", "config": {"name": "residual_1_12_conv_block", "trainable": true, "dtype": "float32", "filters": 256, "kernel_size": [3, 3], "strides": [1, 1], "padding": "same", "data_format": "channels_last", "dilation_rate": [1, 1], "activation": "linear", "use_bias": true, "kernel_initializer": {"class_name": "Zeros", "config": {}}, "bias_initializer": {"class_name": "Zeros", "config": {}}, "kernel_regularizer": null, "bias_regularizer": null, "activity_regularizer": null, "kernel_constraint": null, "bias_constraint": null}, "inbound_nodes": [[["b_11_relu", 0, 0, {}]]]}, {"name": "residual_1_12_batch_norm", "class_name": "BatchNormalization", "config": {"name": "residual_1_12_batch_norm", "trainable": true, "dtype": "float32", "axis": [3], "momentum": 0.99, "epsilon": 1e-05, "center": false, "scale": false, "beta_initializer": {"class_name": "Zeros", "config": {}}, "gamma_initializer": {"class_name": "Ones", "config": {}}, "moving_mean_initializer": {"class_name": "Zeros", "config": {}}, "moving_variance_initializer": {"class_name": "Ones", "config": {}}, "beta_regularizer": null, "gamma_regularizer": null, "beta_constraint": null, "gamma_constraint": null}, "inbound_nodes": [[["residual_1_12_conv_block", 0, 0, {}]]]}, {"name": "b_residual_1_12_relu", "class_name": "Activation", "config": {"name": "b_residual_1_12_relu", "trainable": true, "dtype": "float32", "activation": "relu"}, "inbound_nodes": [[["residual_1_12_batch_norm", 0, 0, {}]]]}, {"name": "residual_2_12_conv_block", "class_name": "Conv2D", "config": {"name": "residual_2_12_conv_block", "trainable": true, "dtype": "float32", "filters": 256, "kernel_size": [3, 3], "strides": [1, 1], "padding": "same", "data_format": "channels_last", "dilation_rate": [1, 1], "activation": "linear", "use_bias": true, "kernel_initializer": {"class_name": "Zeros", "config": {}}, "bias_initializer": {"class_name": "Zeros", "config": {}}, "kernel_regularizer": null, "bias_regularizer": null, "activity_regularizer": null, "kernel_constraint": null, "bias_constraint": null}, "inbound_nodes": [[["b_residual_1_12_relu", 0, 0, {}]]]}, {"name": "residual_2_12_batch_norm", "class_name": "BatchNormalization", "config": {"name": "residual_2_12_batch_norm", "trainable": true, "dtype": "float32", "axis": [3], "momentum": 0.99, "epsilon": 1e-05, "center": false, "scale": false, "beta_initializer": {"class_name": "Zeros", "config": {}}, "gamma_initializer": {"class_name": "Ones", "config": {}}, "moving_mean_initializer": {"class_name": "Zeros", "config": {}}, "moving_variance_initializer": {"class_name": "Ones", "config": {}}, "beta_regularizer": null, "gamma_regularizer": null, "beta_constraint": null, "gamma_constraint": null}, "inbound_nodes": [[["residual_2_12_conv_block", 0, 0, {}]]]}, {"name": "add_12", "class_name": "Add", "config": {"name": "add_12", "trainable": true, "dtype": "float32"}, "inbound_nodes": [[["b_11_relu", 0, 0, {}], ["residual_2_12_batch_norm", 0, 0, {}]]]}, {"name": "b_12_relu", "class_name": "Activation", "config": {"name": "b_12_relu", "trainable": true, "dtype": "float32", "activation": "relu"}, "inbound_nodes": [[["add_12", 0, 0, {}]]]}, {"name": "residual_1_13_conv_block", "class_name": "Conv2D", "config": {"name": "residual_1_13_conv_block", "trainable": true, "dtype": "float32", "filters": 256, "kernel_size": [3, 3], "strides": [1, 1], "padding": "same", "data_format": "channels_last", "dilation_rate": [1, 1], "activation": "linear", "use_bias": true, "kernel_initializer": {"class_name": "Zeros", "config": {}}, "bias_initializer": {"class_name": "Zeros", "config": {}}, "kernel_regularizer": null, "bias_regularizer": null, "activity_regularizer": null, "kernel_constraint": null, "bias_constraint": null}, "inbound_nodes": [[["b_12_relu", 0, 0, {}]]]}, {"name": "residual_1_13_batch_norm", "class_name": "BatchNormalization", "config": {"name": "residual_1_13_batch_norm", "trainable": true, "dtype": "float32", "axis": [3], "momentum": 0.99, "epsilon": 1e-05, "center": false, "scale": false, "beta_initializer": {"class_name": "Zeros", "config": {}}, "gamma_initializer": {"class_name": "Ones", "config": {}}, "moving_mean_initializer": {"class_name": "Zeros", "config": {}}, "moving_variance_initializer": {"class_name": "Ones", "config": {}}, "beta_regularizer": null, "gamma_regularizer": null, "beta_constraint": null, "gamma_constraint": null}, "inbound_nodes": [[["residual_1_13_conv_block", 0, 0, {}]]]}, {"name": "b_residual_1_13_relu", "class_name": "Activation", "config": {"name": "b_residual_1_13_relu", "trainable": true, "dtype": "float32", "activation": "relu"}, "inbound_nodes": [[["residual_1_13_batch_norm", 0, 0, {}]]]}, {"name": "residual_2_13_conv_block", "class_name": "Conv2D", "config": {"name": "residual_2_13_conv_block", "trainable": true, "dtype": "float32", "filters": 256, "kernel_size": [3, 3], "strides": [1, 1], "padding": "same", "data_format": "channels_last", "dilation_rate": [1, 1], "activation": "linear", "use_bias": true, "kernel_initializer": {"class_name": "Zeros", "config": {}}, "bias_initializer": {"class_name": "Zeros", "config": {}}, "kernel_regularizer": null, "bias_regularizer": null, "activity_regularizer": null, "kernel_constraint": null, "bias_constraint": null}, "inbound_nodes": [[["b_residual_1_13_relu", 0, 0, {}]]]}, {"name": "residual_2_13_batch_norm", "class_name": "BatchNormalization", "config": {"name": "residual_2_13_batch_norm", "trainable": true, "dtype": "float32", "axis": [3], "momentum": 0.99, "epsilon": 1e-05, "center": false, "scale": false, "beta_initializer": {"class_name": "Zeros", "config": {}}, "gamma_initializer": {"class_name": "Ones", "config": {}}, "moving_mean_initializer": {"class_name": "Zeros", "config": {}}, "moving_variance_initializer": {"class_name": "Ones", "config": {}}, "beta_regularizer": null, "gamma_regularizer": null, "beta_constraint": null, "gamma_constraint": null}, "inbound_nodes": [[["residual_2_13_conv_block", 0, 0, {}]]]}, {"name": "add_13", "class_name": "Add", "config": {"name": "add_13", "trainable": true, "dtype": "float32"}, "inbound_nodes": [[["b_12_relu", 0, 0, {}], ["residual_2_13_batch_norm", 0, 0, {}]]]}, {"name": "b_13_relu", "class_name": "Activation", "config": {"name": "b_13_relu", "trainable": true, "dtype": "float32", "activation": "relu"}, "inbound_nodes": [[["add_13", 0, 0, {}]]]}, {"name": "residual_1_14_conv_block", "class_name": "Conv2D", "config": {"name": "residual_1_14_conv_block", "trainable": true, "dtype": "float32", "filters": 256, "kernel_size": [3, 3], "strides": [1, 1], "padding": "same", "data_format": "channels_last", "dilation_rate": [1, 1], "activation": "linear", "use_bias": true, "kernel_initializer": {"class_name": "Zeros", "config": {}}, "bias_initializer": {"class_name": "Zeros", "config": {}}, "kernel_regularizer": null, "bias_regularizer": null, "activity_regularizer": null, "kernel_constraint": null, "bias_constraint": null}, "inbound_nodes": [[["b_13_relu", 0, 0, {}]]]}, {"name": "residual_1_14_batch_norm", "class_name": "BatchNormalization", "config": {"name": "residual_1_14_batch_norm", "trainable": true, "dtype": "float32", "axis": [3], "momentum": 0.99, "epsilon": 1e-05, "center": false, "scale": false, "beta_initializer": {"class_name": "Zeros", "config": {}}, "gamma_initializer": {"class_name": "Ones", "config": {}}, "moving_mean_initializer": {"class_name": "Zeros", "config": {}}, "moving_variance_initializer": {"class_name": "Ones", "config": {}}, "beta_regularizer": null, "gamma_regularizer": null, "beta_constraint": null, "gamma_constraint": null}, "inbound_nodes": [[["residual_1_14_conv_block", 0, 0, {}]]]}, {"name": "b_residual_1_14_relu", "class_name": "Activation", "config": {"name": "b_residual_1_14_relu", "trainable": true, "dtype": "float32", "activation": "relu"}, "inbound_nodes": [[["residual_1_14_batch_norm", 0, 0, {}]]]}, {"name": "residual_2_14_conv_block", "class_name": "Conv2D", "config": {"name": "residual_2_14_conv_block", "trainable": true, "dtype": "float32", "filters": 256, "kernel_size": [3, 3], "strides": [1, 1], "padding": "same", "data_format": "channels_last", "dilation_rate": [1, 1], "activation": "linear", "use_bias": true, "kernel_initializer": {"class_name": "Zeros", "config": {}}, "bias_initializer": {"class_name": "Zeros", "config": {}}, "kernel_regularizer": null, "bias_regularizer": null, "activity_regularizer": null, "kernel_constraint": null, "bias_constraint": null}, "inbound_nodes": [[["b_residual_1_14_relu", 0, 0, {}]]]}, {"name": "residual_2_14_batch_norm", "class_name": "BatchNormalization", "config": {"name": "residual_2_14_batch_norm", "trainable": true, "dtype": "float32", "axis": [3], "momentum": 0.99, "epsilon": 1e-05, "center": false, "scale": false, "beta_initializer": {"class_name": "Zeros", "config": {}}, "gamma_initializer": {"class_name": "Ones", "config": {}}, "moving_mean_initializer": {"class_name": "Zeros", "config": {}}, "moving_variance_initializer": {"class_name": "Ones", "config": {}}, "beta_regularizer": null, "gamma_regularizer": null, "beta_constraint": null, "gamma_constraint": null}, "inbound_nodes": [[["residual_2_14_conv_block", 0, 0, {}]]]}, {"name": "add_14", "class_name": "Add", "config": {"name": "add_14", "trainable": true, "dtype": "float32"}, "inbound_nodes": [[["b_13_relu", 0, 0, {}], ["residual_2_14_batch_norm", 0, 0, {}]]]}, {"name": "b_14_relu", "class_name": "Activation", "config": {"name": "b_14_relu", "trainable": true, "dtype": "float32", "activation": "relu"}, "inbound_nodes": [[["add_14", 0, 0, {}]]]}, {"name": "residual_1_15_conv_block", "class_name": "Conv2D", "config": {"name": "residual_1_15_conv_block", "trainable": true, "dtype": "float32", "filters": 256, "kernel_size": [3, 3], "strides": [1, 1], "padding": "same", "data_format": "channels_last", "dilation_rate": [1, 1], "activation": "linear", "use_bias": true, "kernel_initializer": {"class_name": "Zeros", "config": {}}, "bias_initializer": {"class_name": "Zeros", "config": {}}, "kernel_regularizer": null, "bias_regularizer": null, "activity_regularizer": null, "kernel_constraint": null, "bias_constraint": null}, "inbound_nodes": [[["b_14_relu", 0, 0, {}]]]}, {"name": "residual_1_15_batch_norm", "class_name": "BatchNormalization", "config": {"name": "residual_1_15_batch_norm", "trainable": true, "dtype": "float32", "axis": [3], "momentum": 0.99, "epsilon": 1e-05, "center": false, "scale": false, "beta_initializer": {"class_name": "Zeros", "config": {}}, "gamma_initializer": {"class_name": "Ones", "config": {}}, "moving_mean_initializer": {"class_name": "Zeros", "config": {}}, "moving_variance_initializer": {"class_name": "Ones", "config": {}}, "beta_regularizer": null, "gamma_regularizer": null, "beta_constraint": null, "gamma_constraint": null}, "inbound_nodes": [[["residual_1_15_conv_block", 0, 0, {}]]]}, {"name": "b_residual_1_15_relu", "class_name": "Activation", "config": {"name": "b_residual_1_15_relu", "trainable": true, "dtype": "float32", "activation": "relu"}, "inbound_nodes": [[["residual_1_15_batch_norm", 0, 0, {}]]]}, {"name": "residual_2_15_conv_block", "class_name": "Conv2D", "config": {"name": "residual_2_15_conv_block", "trainable": true, "dtype": "float32", "filters": 256, "kernel_size": [3, 3], "strides": [1, 1], "padding": "same", "data_format": "channels_last", "dilation_rate": [1, 1], "activation": "linear", "use_bias": true, "kernel_initializer": {"class_name": "Zeros", "config": {}}, "bias_initializer": {"class_name": "Zeros", "config": {}}, "kernel_regularizer": null, "bias_regularizer": null, "activity_regularizer": null, "kernel_constraint": null, "bias_constraint": null}, "inbound_nodes": [[["b_residual_1_15_relu", 0, 0, {}]]]}, {"name": "residual_2_15_batch_norm", "class_name": "BatchNormalization", "config": {"name": "residual_2_15_batch_norm", "trainable": true, "dtype": "float32", "axis": [3], "momentum": 0.99, "epsilon": 1e-05, "center": false, "scale": false, "beta_initializer": {"class_name": "Zeros", "config": {}}, "gamma_initializer": {"class_name": "Ones", "config": {}}, "moving_mean_initializer": {"class_name": "Zeros", "config": {}}, "moving_variance_initializer": {"class_name": "Ones", "config": {}}, "beta_regularizer": null, "gamma_regularizer": null, "beta_constraint": null, "gamma_constraint": null}, "inbound_nodes": [[["residual_2_15_conv_block", 0, 0, {}]]]}, {"name": "add_15", "class_name": "Add", "config": {"name": "add_15", "trainable": true, "dtype": "float32"}, "inbound_nodes": [[["b_14_relu", 0, 0, {}], ["residual_2_15_batch_norm", 0, 0, {}]]]}, {"name": "b_15_relu", "class_name": "Activation", "config": {"name": "b_15_relu", "trainable": true, "dtype": "float32", "activation": "relu"}, "inbound_nodes": [[["add_15", 0, 0, {}]]]}, {"name": "residual_1_16_conv_block", "class_name": "Conv2D", "config": {"name": "residual_1_16_conv_block", "trainable": true, "dtype": "float32", "filters": 256, "kernel_size": [3, 3], "strides": [1, 1], "padding": "same", "data_format": "channels_last", "dilation_rate": [1, 1], "activation": "linear", "use_bias": true, "kernel_initializer": {"class_name": "Zeros", "config": {}}, "bias_initializer": {"class_name": "Zeros", "config": {}}, "kernel_regularizer": null, "bias_regularizer": null, "activity_regularizer": null, "kernel_constraint": null, "bias_constraint": null}, "inbound_nodes": [[["b_15_relu", 0, 0, {}]]]}, {"name": "residual_1_16_batch_norm", "class_name": "BatchNormalization", "config": {"name": "residual_1_16_batch_norm", "trainable": true, "dtype": "float32", "axis": [3], "momentum": 0.99, "epsilon": 1e-05, "center": false, "scale": false, "beta_initializer": {"class_name": "Zeros", "config": {}}, "gamma_initializer": {"class_name": "Ones", "config": {}}, "moving_mean_initializer": {"class_name": "Zeros", "config": {}}, "moving_variance_initializer": {"class_name": "Ones", "config": {}}, "beta_regularizer": null, "gamma_regularizer": null, "beta_constraint": null, "gamma_constraint": null}, "inbound_nodes": [[["residual_1_16_conv_block", 0, 0, {}]]]}, {"name": "b_residual_1_16_relu", "class_name": "Activation", "config": {"name": "b_residual_1_16_relu", "trainable": true, "dtype": "float32", "activation": "relu"}, "inbound_nodes": [[["residual_1_16_batch_norm", 0, 0, {}]]]}, {"name": "residual_2_16_conv_block", "class_name": "Conv2D", "config": {"name": "residual_2_16_conv_block", "trainable": true, "dtype": "float32", "filters": 256, "kernel_size": [3, 3], "strides": [1, 1], "padding": "same", "data_format": "channels_last", "dilation_rate": [1, 1], "activation": "linear", "use_bias": true, "kernel_initializer": {"class_name": "Zeros", "config": {}}, "bias_initializer": {"class_name": "Zeros", "config": {}}, "kernel_regularizer": null, "bias_regularizer": null, "activity_regularizer": null, "kernel_constraint": null, "bias_constraint": null}, "inbound_nodes": [[["b_residual_1_16_relu", 0, 0, {}]]]}, {"name": "residual_2_16_batch_norm", "class_name": "BatchNormalization", "config": {"name": "residual_2_16_batch_norm", "trainable": true, "dtype": "float32", "axis": [3], "momentum": 0.99, "epsilon": 1e-05, "center": false, "scale": false, "beta_initializer": {"class_name": "Zeros", "config": {}}, "gamma_initializer": {"class_name": "Ones", "config": {}}, "moving_mean_initializer": {"class_name": "Zeros", "config": {}}, "moving_variance_initializer": {"class_name": "Ones", "config": {}}, "beta_regularizer": null, "gamma_regularizer": null, "beta_constraint": null, "gamma_constraint": null}, "inbound_nodes": [[["residual_2_16_conv_block", 0, 0, {}]]]}, {"name": "add_16", "class_name": "Add", "config": {"name": "add_16", "trainable": true, "dtype": "float32"}, "inbound_nodes": [[["b_15_relu", 0, 0, {}], ["residual_2_16_batch_norm", 0, 0, {}]]]}, {"name": "b_16_relu", "class_name": "Activation", "config": {"name": "b_16_relu", "trainable": true, "dtype": "float32", "activation": "relu"}, "inbound_nodes": [[["add_16", 0, 0, {}]]]}, {"name": "residual_1_17_conv_block", "class_name": "Conv2D", "config": {"name": "residual_1_17_conv_block", "trainable": true, "dtype": "float32", "filters": 256, "kernel_size": [3, 3], "strides": [1, 1], "padding": "same", "data_format": "channels_last", "dilation_rate": [1, 1], "activation": "linear", "use_bias": true, "kernel_initializer": {"class_name": "Zeros", "config": {}}, "bias_initializer": {"class_name": "Zeros", "config": {}}, "kernel_regularizer": null, "bias_regularizer": null, "activity_regularizer": null, "kernel_constraint": null, "bias_constraint": null}, "inbound_nodes": [[["b_16_relu", 0, 0, {}]]]}, {"name": "residual_1_17_batch_norm", "class_name": "BatchNormalization", "config": {"name": "residual_1_17_batch_norm", "trainable": true, "dtype": "float32", "axis": [3], "momentum": 0.99, "epsilon": 1e-05, "center": false, "scale": false, "beta_initializer": {"class_name": "Zeros", "config": {}}, "gamma_initializer": {"class_name": "Ones", "config": {}}, "moving_mean_initializer": {"class_name": "Zeros", "config": {}}, "moving_variance_initializer": {"class_name": "Ones", "config": {}}, "beta_regularizer": null, "gamma_regularizer": null, "beta_constraint": null, "gamma_constraint": null}, "inbound_nodes": [[["residual_1_17_conv_block", 0, 0, {}]]]}, {"name": "b_residual_1_17_relu", "class_name": "Activation", "config": {"name": "b_residual_1_17_relu", "trainable": true, "dtype": "float32", "activation": "relu"}, "inbound_nodes": [[["residual_1_17_batch_norm", 0, 0, {}]]]}, {"name": "residual_2_17_conv_block", "class_name": "Conv2D", "config": {"name": "residual_2_17_conv_block", "trainable": true, "dtype": "float32", "filters": 256, "kernel_size": [3, 3], "strides": [1, 1], "padding": "same", "data_format": "channels_last", "dilation_rate": [1, 1], "activation": "linear", "use_bias": true, "kernel_initializer": {"class_name": "Zeros", "config": {}}, "bias_initializer": {"class_name": "Zeros", "config": {}}, "kernel_regularizer": null, "bias_regularizer": null, "activity_regularizer": null, "kernel_constraint": null, "bias_constraint": null}, "inbound_nodes": [[["b_residual_1_17_relu", 0, 0, {}]]]}, {"name": "residual_2_17_batch_norm", "class_name": "BatchNormalization", "config": {"name": "residual_2_17_batch_norm", "trainable": true, "dtype": "float32", "axis": [3], "momentum": 0.99, "epsilon": 1e-05, "center": false, "scale": false, "beta_initializer": {"class_name": "Zeros", "config": {}}, "gamma_initializer": {"class_name": "Ones", "config": {}}, "moving_mean_initializer": {"class_name": "Zeros", "config": {}}, "moving_variance_initializer": {"class_name": "Ones", "config": {}}, "beta_regularizer": null, "gamma_regularizer": null, "beta_constraint": null, "gamma_constraint": null}, "inbound_nodes": [[["residual_2_17_conv_block", 0, 0, {}]]]}, {"name": "add_17", "class_name": "Add", "config": {"name": "add_17", "trainable": true, "dtype": "float32"}, "inbound_nodes": [[["b_16_relu", 0, 0, {}], ["residual_2_17_batch_norm", 0, 0, {}]]]}, {"name": "b_17_relu", "class_name": "Activation", "config": {"name": "b_17_relu", "trainable": true, "dtype": "float32", "activation": "relu"}, "inbound_nodes": [[["add_17", 0, 0, {}]]]}, {"name": "residual_1_18_conv_block", "class_name": "Conv2D", "config": {"name": "residual_1_18_conv_block", "trainable": true, "dtype": "float32", "filters": 256, "kernel_size": [3, 3], "strides": [1, 1], "padding": "same", "data_format": "channels_last", "dilation_rate": [1, 1], "activation": "linear", "use_bias": true, "kernel_initializer": {"class_name": "Zeros", "config": {}}, "bias_initializer": {"class_name": "Zeros", "config": {}}, "kernel_regularizer": null, "bias_regularizer": null, "activity_regularizer": null, "kernel_constraint": null, "bias_constraint": null}, "inbound_nodes": [[["b_17_relu", 0, 0, {}]]]}, {"name": "residual_1_18_batch_norm", "class_name": "BatchNormalization", "config": {"name": "residual_1_18_batch_norm", "trainable": true, "dtype": "float32", "axis": [3], "momentum": 0.99, "epsilon": 1e-05, "center": false, "scale": false, "beta_initializer": {"class_name": "Zeros", "config": {}}, "gamma_initializer": {"class_name": "Ones", "config": {}}, "moving_mean_initializer": {"class_name": "Zeros", "config": {}}, "moving_variance_initializer": {"class_name": "Ones", "config": {}}, "beta_regularizer": null, "gamma_regularizer": null, "beta_constraint": null, "gamma_constraint": null}, "inbound_nodes": [[["residual_1_18_conv_block", 0, 0, {}]]]}, {"name": "b_residual_1_18_relu", "class_name": "Activation", "config": {"name": "b_residual_1_18_relu", "trainable": true, "dtype": "float32", "activation": "relu"}, "inbound_nodes": [[["residual_1_18_batch_norm", 0, 0, {}]]]}, {"name": "residual_2_18_conv_block", "class_name": "Conv2D", "config": {"name": "residual_2_18_conv_block", "trainable": true, "dtype": "float32", "filters": 256, "kernel_size": [3, 3], "strides": [1, 1], "padding": "same", "data_format": "channels_last", "dilation_rate": [1, 1], "activation": "linear", "use_bias": true, "kernel_initializer": {"class_name": "Zeros", "config": {}}, "bias_initializer": {"class_name": "Zeros", "config": {}}, "kernel_regularizer": null, "bias_regularizer": null, "activity_regularizer": null, "kernel_constraint": null, "bias_constraint": null}, "inbound_nodes": [[["b_residual_1_18_relu", 0, 0, {}]]]}, {"name": "residual_2_18_batch_norm", "class_name": "BatchNormalization", "config": {"name": "residual_2_18_batch_norm", "trainable": true, "dtype": "float32", "axis": [3], "momentum": 0.99, "epsilon": 1e-05, "center": false, "scale": false, "beta_initializer": {"class_name": "Zeros", "config": {}}, "gamma_initializer": {"class_name": "Ones", "config": {}}, "moving_mean_initializer": {"class_name": "Zeros", "config": {}}, "moving_variance_initializer": {"class_name": "Ones", "config": {}}, "beta_regularizer": null, "gamma_regularizer": null, "beta_constraint": null, "gamma_constraint": null}, "inbound_nodes": [[["residual_2_18_conv_block", 0, 0, {}]]]}, {"name": "add_18", "class_name": "Add", "config": {"name": "add_18", "trainable": true, "dtype": "float32"}, "inbound_nodes": [[["b_17_relu", 0, 0, {}], ["residual_2_18_batch_norm", 0, 0, {}]]]}, {"name": "b_18_relu", "class_name": "Activation", "config": {"name": "b_18_relu", "trainable": true, "dtype": "float32", "activation": "relu"}, "inbound_nodes": [[["add_18", 0, 0, {}]]]}, {"name": "residual_1_19_conv_block", "class_name": "Conv2D", "config": {"name": "residual_1_19_conv_block", "trainable": true, "dtype": "float32", "filters": 256, "kernel_size": [3, 3], "strides": [1, 1], "padding": "same", "data_format": "channels_last", "dilation_rate": [1, 1], "activation": "linear", "use_bias": true, "kernel_initializer": {"class_name": "Zeros", "config": {}}, "bias_initializer": {"class_name": "Zeros", "config": {}}, "kernel_regularizer": null, "bias_regularizer": null, "activity_regularizer": null, "kernel_constraint": null, "bias_constraint": null}, "inbound_nodes": [[["b_18_relu", 0, 0, {}]]]}, {"name": "residual_1_19_batch_norm", "class_name": "BatchNormalization", "config": {"name": "residual_1_19_batch_norm", "trainable": true, "dtype": "float32", "axis": [3], "momentum": 0.99, "epsilon": 1e-05, "center": false, "scale": false, "beta_initializer": {"class_name": "Zeros", "config": {}}, "gamma_initializer": {"class_name": "Ones", "config": {}}, "moving_mean_initializer": {"class_name": "Zeros", "config": {}}, "moving_variance_initializer": {"class_name": "Ones", "config": {}}, "beta_regularizer": null, "gamma_regularizer": null, "beta_constraint": null, "gamma_constraint": null}, "inbound_nodes": [[["residual_1_19_conv_block", 0, 0, {}]]]}, {"name": "b_residual_1_19_relu", "class_name": "Activation", "config": {"name": "b_residual_1_19_relu", "trainable": true, "dtype": "float32", "activation": "relu"}, "inbound_nodes": [[["residual_1_19_batch_norm", 0, 0, {}]]]}, {"name": "residual_2_19_conv_block", "class_name": "Conv2D", "config": {"name": "residual_2_19_conv_block", "trainable": true, "dtype": "float32", "filters": 256, "kernel_size": [3, 3], "strides": [1, 1], "padding": "same", "data_format": "channels_last", "dilation_rate": [1, 1], "activation": "linear", "use_bias": true, "kernel_initializer": {"class_name": "Zeros", "config": {}}, "bias_initializer": {"class_name": "Zeros", "config": {}}, "kernel_regularizer": null, "bias_regularizer": null, "activity_regularizer": null, "kernel_constraint": null, "bias_constraint": null}, "inbound_nodes": [[["b_residual_1_19_relu", 0, 0, {}]]]}, {"name": "residual_2_19_batch_norm", "class_name": "BatchNormalization", "config": {"name": "residual_2_19_batch_norm", "trainable": true, "dtype": "float32", "axis": [3], "momentum": 0.99, "epsilon": 1e-05, "center": false, "scale": false, "beta_initializer": {"class_name": "Zeros", "config": {}}, "gamma_initializer": {"class_name": "Ones", "config": {}}, "moving_mean_initializer": {"class_name": "Zeros", "config": {}}, "moving_variance_initializer": {"class_name": "Ones", "config": {}}, "beta_regularizer": null, "gamma_regularizer": null, "beta_constraint": null, "gamma_constraint": null}, "inbound_nodes": [[["residual_2_19_conv_block", 0, 0, {}]]]}, {"name": "add_19", "class_name": "Add", "config": {"name": "add_19", "trainable": true, "dtype": "float32"}, "inbound_nodes": [[["b_18_relu", 0, 0, {}], ["residual_2_19_batch_norm", 0, 0, {}]]]}, {"name": "b_19_relu", "class_name": "Activation", "config": {"name": "b_19_relu", "trainable": true, "dtype": "float32", "activation": "relu"}, "inbound_nodes": [[["add_19", 0, 0, {}]]]}, {"name": "residual_1_20_conv_block", "class_name": "Conv2D", "config": {"name": "residual_1_20_conv_block", "trainable": true, "dtype": "float32", "filters": 256, "kernel_size": [3, 3], "strides": [1, 1], "padding": "same", "data_format": "channels_last", "dilation_rate": [1, 1], "activation": "linear", "use_bias": true, "kernel_initializer": {"class_name": "Zeros", "config": {}}, "bias_initializer": {"class_name": "Zeros", "config": {}}, "kernel_regularizer": null, "bias_regularizer": null, "activity_regularizer": null, "kernel_constraint": null, "bias_constraint": null}, "inbound_nodes": [[["b_19_relu", 0, 0, {}]]]}, {"name": "residual_1_20_batch_norm", "class_name": "BatchNormalization", "config": {"name": "residual_1_20_batch_norm", "trainable": true, "dtype": "float32", "axis": [3], "momentum": 0.99, "epsilon": 1e-05, "center": false, "scale": false, "beta_initializer": {"class_name": "Zeros", "config": {}}, "gamma_initializer": {"class_name": "Ones", "config": {}}, "moving_mean_initializer": {"class_name": "Zeros", "config": {}}, "moving_variance_initializer": {"class_name": "Ones", "config": {}}, "beta_regularizer": null, "gamma_regularizer": null, "beta_constraint": null, "gamma_constraint": null}, "inbound_nodes": [[["residual_1_20_conv_block", 0, 0, {}]]]}, {"name": "b_residual_1_20_relu", "class_name": "Activation", "config": {"name": "b_residual_1_20_relu", "trainable": true, "dtype": "float32", "activation": "relu"}, "inbound_nodes": [[["residual_1_20_batch_norm", 0, 0, {}]]]}, {"name": "residual_2_20_conv_block", "class_name": "Conv2D", "config": {"name": "residual_2_20_conv_block", "trainable": true, "dtype": "float32", "filters": 256, "kernel_size": [3, 3], "strides": [1, 1], "padding": "same", "data_format": "channels_last", "dilation_rate": [1, 1], "activation": "linear", "use_bias": true, "kernel_initializer": {"class_name": "Zeros", "config": {}}, "bias_initializer": {"class_name": "Zeros", "config": {}}, "kernel_regularizer": null, "bias_regularizer": null, "activity_regularizer": null, "kernel_constraint": null, "bias_constraint": null}, "inbound_nodes": [[["b_residual_1_20_relu", 0, 0, {}]]]}, {"name": "residual_2_20_batch_norm", "class_name": "BatchNormalization", "config": {"name": "residual_2_20_batch_norm", "trainable": true, "dtype": "float32", "axis": [3], "momentum": 0.99, "epsilon": 1e-05, "center": false, "scale": false, "beta_initializer": {"class_name": "Zeros", "config": {}}, "gamma_initializer": {"class_name": "Ones", "config": {}}, "moving_mean_initializer": {"class_name": "Zeros", "config": {}}, "moving_variance_initializer": {"class_name": "Ones", "config": {}}, "beta_regularizer": null, "gamma_regularizer": null, "beta_constraint": null, "gamma_constraint": null}, "inbound_nodes": [[["residual_2_20_conv_block", 0, 0, {}]]]}, {"name": "add_20", "class_name": "Add", "config": {"name": "add_20", "trainable": true, "dtype": "float32"}, "inbound_nodes": [[["b_19_relu", 0, 0, {}], ["residual_2_20_batch_norm", 0, 0, {}]]]}, {"name": "b_20_relu", "class_name": "Activation", "config": {"name": "b_20_relu", "trainable": true, "dtype": "float32", "activation": "relu"}, "inbound_nodes": [[["add_20", 0, 0, {}]]]}, {"name": "residual_1_21_conv_block", "class_name": "Conv2D", "config": {"name": "residual_1_21_conv_block", "trainable": true, "dtype": "float32", "filters": 256, "kernel_size": [3, 3], "strides": [1, 1], "padding": "same", "data_format": "channels_last", "dilation_rate": [1, 1], "activation": "linear", "use_bias": true, "kernel_initializer": {"class_name": "Zeros", "config": {}}, "bias_initializer": {"class_name": "Zeros", "config": {}}, "kernel_regularizer": null, "bias_regularizer": null, "activity_regularizer": null, "kernel_constraint": null, "bias_constraint": null}, "inbound_nodes": [[["b_20_relu", 0, 0, {}]]]}, {"name": "residual_1_21_batch_norm", "class_name": "BatchNormalization", "config": {"name": "residual_1_21_batch_norm", "trainable": true, "dtype": "float32", "axis": [3], "momentum": 0.99, "epsilon": 1e-05, "center": false, "scale": false, "beta_initializer": {"class_name": "Zeros", "config": {}}, "gamma_initializer": {"class_name": "Ones", "config": {}}, "moving_mean_initializer": {"class_name": "Zeros", "config": {}}, "moving_variance_initializer": {"class_name": "Ones", "config": {}}, "beta_regularizer": null, "gamma_regularizer": null, "beta_constraint": null, "gamma_constraint": null}, "inbound_nodes": [[["residual_1_21_conv_block", 0, 0, {}]]]}, {"name": "b_residual_1_21_relu", "class_name": "Activation", "config": {"name": "b_residual_1_21_relu", "trainable": true, "dtype": "float32", "activation": "relu"}, "inbound_nodes": [[["residual_1_21_batch_norm", 0, 0, {}]]]}, {"name": "residual_2_21_conv_block", "class_name": "Conv2D", "config": {"name": "residual_2_21_conv_block", "trainable": true, "dtype": "float32", "filters": 256, "kernel_size": [3, 3], "strides": [1, 1], "padding": "same", "data_format": "channels_last", "dilation_rate": [1, 1], "activation": "linear", "use_bias": true, "kernel_initializer": {"class_name": "Zeros", "config": {}}, "bias_initializer": {"class_name": "Zeros", "config": {}}, "kernel_regularizer": null, "bias_regularizer": null, "activity_regularizer": null, "kernel_constraint": null, "bias_constraint": null}, "inbound_nodes": [[["b_residual_1_21_relu", 0, 0, {}]]]}, {"name": "residual_2_21_batch_norm", "class_name": "BatchNormalization", "config": {"name": "residual_2_21_batch_norm", "trainable": true, "dtype": "float32", "axis": [3], "momentum": 0.99, "epsilon": 1e-05, "center": false, "scale": false, "beta_initializer": {"class_name": "Zeros", "config": {}}, "gamma_initializer": {"class_name": "Ones", "config": {}}, "moving_mean_initializer": {"class_name": "Zeros", "config": {}}, "moving_variance_initializer": {"class_name": "Ones", "config": {}}, "beta_regularizer": null, "gamma_regularizer": null, "beta_constraint": null, "gamma_constraint": null}, "inbound_nodes": [[["residual_2_21_conv_block", 0, 0, {}]]]}, {"name": "add_21", "class_name": "Add", "config": {"name": "add_21", "trainable": true, "dtype": "float32"}, "inbound_nodes": [[["b_20_relu", 0, 0, {}], ["residual_2_21_batch_norm", 0, 0, {}]]]}, {"name": "b_21_relu", "class_name": "Activation", "config": {"name": "b_21_relu", "trainable": true, "dtype": "float32", "activation": "relu"}, "inbound_nodes": [[["add_21", 0, 0, {}]]]}, {"name": "residual_1_22_conv_block", "class_name": "Conv2D", "config": {"name": "residual_1_22_conv_block", "trainable": true, "dtype": "float32", "filters": 256, "kernel_size": [3, 3], "strides": [1, 1], "padding": "same", "data_format": "channels_last", "dilation_rate": [1, 1], "activation": "linear", "use_bias": true, "kernel_initializer": {"class_name": "Zeros", "config": {}}, "bias_initializer": {"class_name": "Zeros", "config": {}}, "kernel_regularizer": null, "bias_regularizer": null, "activity_regularizer": null, "kernel_constraint": null, "bias_constraint": null}, "inbound_nodes": [[["b_21_relu", 0, 0, {}]]]}, {"name": "residual_1_22_batch_norm", "class_name": "BatchNormalization", "config": {"name": "residual_1_22_batch_norm", "trainable": true, "dtype": "float32", "axis": [3], "momentum": 0.99, "epsilon": 1e-05, "center": false, "scale": false, "beta_initializer": {"class_name": "Zeros", "config": {}}, "gamma_initializer": {"class_name": "Ones", "config": {}}, "moving_mean_initializer": {"class_name": "Zeros", "config": {}}, "moving_variance_initializer": {"class_name": "Ones", "config": {}}, "beta_regularizer": null, "gamma_regularizer": null, "beta_constraint": null, "gamma_constraint": null}, "inbound_nodes": [[["residual_1_22_conv_block", 0, 0, {}]]]}, {"name": "b_residual_1_22_relu", "class_name": "Activation", "config": {"name": "b_residual_1_22_relu", "trainable": true, "dtype": "float32", "activation": "relu"}, "inbound_nodes": [[["residual_1_22_batch_norm", 0, 0, {}]]]}, {"name": "residual_2_22_conv_block", "class_name": "Conv2D", "config": {"name": "residual_2_22_conv_block", "trainable": true, "dtype": "float32", "filters": 256, "kernel_size": [3, 3], "strides": [1, 1], "padding": "same", "data_format": "channels_last", "dilation_rate": [1, 1], "activation": "linear", "use_bias": true, "kernel_initializer": {"class_name": "Zeros", "config": {}}, "bias_initializer": {"class_name": "Zeros", "config": {}}, "kernel_regularizer": null, "bias_regularizer": null, "activity_regularizer": null, "kernel_constraint": null, "bias_constraint": null}, "inbound_nodes": [[["b_residual_1_22_relu", 0, 0, {}]]]}, {"name": "residual_2_22_batch_norm", "class_name": "BatchNormalization", "config": {"name": "residual_2_22_batch_norm", "trainable": true, "dtype": "float32", "axis": [3], "momentum": 0.99, "epsilon": 1e-05, "center": false, "scale": false, "beta_initializer": {"class_name": "Zeros", "config": {}}, "gamma_initializer": {"class_name": "Ones", "config": {}}, "moving_mean_initializer": {"class_name": "Zeros", "config": {}}, "moving_variance_initializer": {"class_name": "Ones", "config": {}}, "beta_regularizer": null, "gamma_regularizer": null, "beta_constraint": null, "gamma_constraint": null}, "inbound_nodes": [[["residual_2_22_conv_block", 0, 0, {}]]]}, {"name": "add_22", "class_name": "Add", "config": {"name": "add_22", "trainable": true, "dtype": "float32"}, "inbound_nodes": [[["b_21_relu", 0, 0, {}], ["residual_2_22_batch_norm", 0, 0, {}]]]}, {"name": "b_22_relu", "class_name": "Activation", "config": {"name": "b_22_relu", "trainable": true, "dtype": "float32", "activation": "relu"}, "inbound_nodes": [[["add_22", 0, 0, {}]]]}, {"name": "residual_1_23_conv_block", "class_name": "Conv2D", "config": {"name": "residual_1_23_conv_block", "trainable": true, "dtype": "float32", "filters": 256, "kernel_size": [3, 3], "strides": [1, 1], "padding": "same", "data_format": "channels_last", "dilation_rate": [1, 1], "activation": "linear", "use_bias": true, "kernel_initializer": {"class_name": "Zeros", "config": {}}, "bias_initializer": {"class_name": "Zeros", "config": {}}, "kernel_regularizer": null, "bias_regularizer": null, "activity_regularizer": null, "kernel_constraint": null, "bias_constraint": null}, "inbound_nodes": [[["b_22_relu", 0, 0, {}]]]}, {"name": "residual_1_23_batch_norm", "class_name": "BatchNormalization", "config": {"name": "residual_1_23_batch_norm", "trainable": true, "dtype": "float32", "axis": [3], "momentum": 0.99, "epsilon": 1e-05, "center": false, "scale": false, "beta_initializer": {"class_name": "Zeros", "config": {}}, "gamma_initializer": {"class_name": "Ones", "config": {}}, "moving_mean_initializer": {"class_name": "Zeros", "config": {}}, "moving_variance_initializer": {"class_name": "Ones", "config": {}}, "beta_regularizer": null, "gamma_regularizer": null, "beta_constraint": null, "gamma_constraint": null}, "inbound_nodes": [[["residual_1_23_conv_block", 0, 0, {}]]]}, {"name": "b_residual_1_23_relu", "class_name": "Activation", "config": {"name": "b_residual_1_23_relu", "trainable": true, "dtype": "float32", "activation": "relu"}, "inbound_nodes": [[["residual_1_23_batch_norm", 0, 0, {}]]]}, {"name": "residual_2_23_conv_block", "class_name": "Conv2D", "config": {"name": "residual_2_23_conv_block", "trainable": true, "dtype": "float32", "filters": 256, "kernel_size": [3, 3], "strides": [1, 1], "padding": "same", "data_format": "channels_last", "dilation_rate": [1, 1], "activation": "linear", "use_bias": true, "kernel_initializer": {"class_name": "Zeros", "config": {}}, "bias_initializer": {"class_name": "Zeros", "config": {}}, "kernel_regularizer": null, "bias_regularizer": null, "activity_regularizer": null, "kernel_constraint": null, "bias_constraint": null}, "inbound_nodes": [[["b_residual_1_23_relu", 0, 0, {}]]]}, {"name": "residual_2_23_batch_norm", "class_name": "BatchNormalization", "config": {"name": "residual_2_23_batch_norm", "trainable": true, "dtype": "float32", "axis": [3], "momentum": 0.99, "epsilon": 1e-05, "center": false, "scale": false, "beta_initializer": {"class_name": "Zeros", "config": {}}, "gamma_initializer": {"class_name": "Ones", "config": {}}, "moving_mean_initializer": {"class_name": "Zeros", "config": {}}, "moving_variance_initializer": {"class_name": "Ones", "config": {}}, "beta_regularizer": null, "gamma_regularizer": null, "beta_constraint": null, "gamma_constraint": null}, "inbound_nodes": [[["residual_2_23_conv_block", 0, 0, {}]]]}, {"name": "add_23", "class_name": "Add", "config": {"name": "add_23", "trainable": true, "dtype": "float32"}, "inbound_nodes": [[["b_22_relu", 0, 0, {}], ["residual_2_23_batch_norm", 0, 0, {}]]]}, {"name": "b_23_relu", "class_name": "Activation", "config": {"name": "b_23_relu", "trainable": true, "dtype": "float32", "activation": "relu"}, "inbound_nodes": [[["add_23", 0, 0, {}]]]}, {"name": "residual_1_24_conv_block", "class_name": "Conv2D", "config": {"name": "residual_1_24_conv_block", "trainable": true, "dtype": "float32", "filters": 256, "kernel_size": [3, 3], "strides": [1, 1], "padding": "same", "data_format": "channels_last", "dilation_rate": [1, 1], "activation": "linear", "use_bias": true, "kernel_initializer": {"class_name": "Zeros", "config": {}}, "bias_initializer": {"class_name": "Zeros", "config": {}}, "kernel_regularizer": null, "bias_regularizer": null, "activity_regularizer": null, "kernel_constraint": null, "bias_constraint": null}, "inbound_nodes": [[["b_23_relu", 0, 0, {}]]]}, {"name": "residual_1_24_batch_norm", "class_name": "BatchNormalization", "config": {"name": "residual_1_24_batch_norm", "trainable": true, "dtype": "float32", "axis": [3], "momentum": 0.99, "epsilon": 1e-05, "center": false, "scale": false, "beta_initializer": {"class_name": "Zeros", "config": {}}, "gamma_initializer": {"class_name": "Ones", "config": {}}, "moving_mean_initializer": {"class_name": "Zeros", "config": {}}, "moving_variance_initializer": {"class_name": "Ones", "config": {}}, "beta_regularizer": null, "gamma_regularizer": null, "beta_constraint": null, "gamma_constraint": null}, "inbound_nodes": [[["residual_1_24_conv_block", 0, 0, {}]]]}, {"name": "b_residual_1_24_relu", "class_name": "Activation", "config": {"name": "b_residual_1_24_relu", "trainable": true, "dtype": "float32", "activation": "relu"}, "inbound_nodes": [[["residual_1_24_batch_norm", 0, 0, {}]]]}, {"name": "residual_2_24_conv_block", "class_name": "Conv2D", "config": {"name": "residual_2_24_conv_block", "trainable": true, "dtype": "float32", "filters": 256, "kernel_size": [3, 3], "strides": [1, 1], "padding": "same", "data_format": "channels_last", "dilation_rate": [1, 1], "activation": "linear", "use_bias": true, "kernel_initializer": {"class_name": "Zeros", "config": {}}, "bias_initializer": {"class_name": "Zeros", "config": {}}, "kernel_regularizer": null, "bias_regularizer": null, "activity_regularizer": null, "kernel_constraint": null, "bias_constraint": null}, "inbound_nodes": [[["b_residual_1_24_relu", 0, 0, {}]]]}, {"name": "residual_2_24_batch_norm", "class_name": "BatchNormalization", "config": {"name": "residual_2_24_batch_norm", "trainable": true, "dtype": "float32", "axis": [3], "momentum": 0.99, "epsilon": 1e-05, "center": false, "scale": false, "beta_initializer": {"class_name": "Zeros", "config": {}}, "gamma_initializer": {"class_name": "Ones", "config": {}}, "moving_mean_initializer": {"class_name": "Zeros", "config": {}}, "moving_variance_initializer": {"class_name": "Ones", "config": {}}, "beta_regularizer": null, "gamma_regularizer": null, "beta_constraint": null, "gamma_constraint": null}, "inbound_nodes": [[["residual_2_24_conv_block", 0, 0, {}]]]}, {"name": "add_24", "class_name": "Add", "config": {"name": "add_24", "trainable": true, "dtype": "float32"}, "inbound_nodes": [[["b_23_relu", 0, 0, {}], ["residual_2_24_batch_norm", 0, 0, {}]]]}, {"name": "b_24_relu", "class_name": "Activation", "config": {"name": "b_24_relu", "trainable": true, "dtype": "float32", "activation": "relu"}, "inbound_nodes": [[["add_24", 0, 0, {}]]]}, {"name": "residual_1_25_conv_block", "class_name": "Conv2D", "config": {"name": "residual_1_25_conv_block", "trainable": true, "dtype": "float32", "filters": 256, "kernel_size": [3, 3], "strides": [1, 1], "padding": "same", "data_format": "channels_last", "dilation_rate": [1, 1], "activation": "linear", "use_bias": true, "kernel_initializer": {"class_name": "Zeros", "config": {}}, "bias_initializer": {"class_name": "Zeros", "config": {}}, "kernel_regularizer": null, "bias_regularizer": null, "activity_regularizer": null, "kernel_constraint": null, "bias_constraint": null}, "inbound_nodes": [[["b_24_relu", 0, 0, {}]]]}, {"name": "residual_1_25_batch_norm", "class_name": "BatchNormalization", "config": {"name": "residual_1_25_batch_norm", "trainable": true, "dtype": "float32", "axis": [3], "momentum": 0.99, "epsilon": 1e-05, "center": false, "scale": false, "beta_initializer": {"class_name": "Zeros", "config": {}}, "gamma_initializer": {"class_name": "Ones", "config": {}}, "moving_mean_initializer": {"class_name": "Zeros", "config": {}}, "moving_variance_initializer": {"class_name": "Ones", "config": {}}, "beta_regularizer": null, "gamma_regularizer": null, "beta_constraint": null, "gamma_constraint": null}, "inbound_nodes": [[["residual_1_25_conv_block", 0, 0, {}]]]}, {"name": "b_residual_1_25_relu", "class_name": "Activation", "config": {"name": "b_residual_1_25_relu", "trainable": true, "dtype": "float32", "activation": "relu"}, "inbound_nodes": [[["residual_1_25_batch_norm", 0, 0, {}]]]}, {"name": "residual_2_25_conv_block", "class_name": "Conv2D", "config": {"name": "residual_2_25_conv_block", "trainable": true, "dtype": "float32", "filters": 256, "kernel_size": [3, 3], "strides": [1, 1], "padding": "same", "data_format": "channels_last", "dilation_rate": [1, 1], "activation": "linear", "use_bias": true, "kernel_initializer": {"class_name": "Zeros", "config": {}}, "bias_initializer": {"class_name": "Zeros", "config": {}}, "kernel_regularizer": null, "bias_regularizer": null, "activity_regularizer": null, "kernel_constraint": null, "bias_constraint": null}, "inbound_nodes": [[["b_residual_1_25_relu", 0, 0, {}]]]}, {"name": "residual_2_25_batch_norm", "class_name": "BatchNormalization", "config": {"name": "residual_2_25_batch_norm", "trainable": true, "dtype": "float32", "axis": [3], "momentum": 0.99, "epsilon": 1e-05, "center": false, "scale": false, "beta_initializer": {"class_name": "Zeros", "config": {}}, "gamma_initializer": {"class_name": "Ones", "config": {}}, "moving_mean_initializer": {"class_name": "Zeros", "config": {}}, "moving_variance_initializer": {"class_name": "Ones", "config": {}}, "beta_regularizer": null, "gamma_regularizer": null, "beta_constraint": null, "gamma_constraint": null}, "inbound_nodes": [[["residual_2_25_conv_block", 0, 0, {}]]]}, {"name": "add_25", "class_name": "Add", "config": {"name": "add_25", "trainable": true, "dtype": "float32"}, "inbound_nodes": [[["b_24_relu", 0, 0, {}], ["residual_2_25_batch_norm", 0, 0, {}]]]}, {"name": "b_25_relu", "class_name": "Activation", "config": {"name": "b_25_relu", "trainable": true, "dtype": "float32", "activation": "relu"}, "inbound_nodes": [[["add_25", 0, 0, {}]]]}, {"name": "residual_1_26_conv_block", "class_name": "Conv2D", "config": {"name": "residual_1_26_conv_block", "trainable": true, "dtype": "float32", "filters": 256, "kernel_size": [3, 3], "strides": [1, 1], "padding": "same", "data_format": "channels_last", "dilation_rate": [1, 1], "activation": "linear", "use_bias": true, "kernel_initializer": {"class_name": "Zeros", "config": {}}, "bias_initializer": {"class_name": "Zeros", "config": {}}, "kernel_regularizer": null, "bias_regularizer": null, "activity_regularizer": null, "kernel_constraint": null, "bias_constraint": null}, "inbound_nodes": [[["b_25_relu", 0, 0, {}]]]}, {"name": "residual_1_26_batch_norm", "class_name": "BatchNormalization", "config": {"name": "residual_1_26_batch_norm", "trainable": true, "dtype": "float32", "axis": [3], "momentum": 0.99, "epsilon": 1e-05, "center": false, "scale": false, "beta_initializer": {"class_name": "Zeros", "config": {}}, "gamma_initializer": {"class_name": "Ones", "config": {}}, "moving_mean_initializer": {"class_name": "Zeros", "config": {}}, "moving_variance_initializer": {"class_name": "Ones", "config": {}}, "beta_regularizer": null, "gamma_regularizer": null, "beta_constraint": null, "gamma_constraint": null}, "inbound_nodes": [[["residual_1_26_conv_block", 0, 0, {}]]]}, {"name": "b_residual_1_26_relu", "class_name": "Activation", "config": {"name": "b_residual_1_26_relu", "trainable": true, "dtype": "float32", "activation": "relu"}, "inbound_nodes": [[["residual_1_26_batch_norm", 0, 0, {}]]]}, {"name": "residual_2_26_conv_block", "class_name": "Conv2D", "config": {"name": "residual_2_26_conv_block", "trainable": true, "dtype": "float32", "filters": 256, "kernel_size": [3, 3], "strides": [1, 1], "padding": "same", "data_format": "channels_last", "dilation_rate": [1, 1], "activation": "linear", "use_bias": true, "kernel_initializer": {"class_name": "Zeros", "config": {}}, "bias_initializer": {"class_name": "Zeros", "config": {}}, "kernel_regularizer": null, "bias_regularizer": null, "activity_regularizer": null, "kernel_constraint": null, "bias_constraint": null}, "inbound_nodes": [[["b_residual_1_26_relu", 0, 0, {}]]]}, {"name": "residual_2_26_batch_norm", "class_name": "BatchNormalization", "config": {"name": "residual_2_26_batch_norm", "trainable": true, "dtype": "float32", "axis": [3], "momentum": 0.99, "epsilon": 1e-05, "center": false, "scale": false, "beta_initializer": {"class_name": "Zeros", "config": {}}, "gamma_initializer": {"class_name": "Ones", "config": {}}, "moving_mean_initializer": {"class_name": "Zeros", "config": {}}, "moving_variance_initializer": {"class_name": "Ones", "config": {}}, "beta_regularizer": null, "gamma_regularizer": null, "beta_constraint": null, "gamma_constraint": null}, "inbound_nodes": [[["residual_2_26_conv_block", 0, 0, {}]]]}, {"name": "add_26", "class_name": "Add", "config": {"name": "add_26", "trainable": true, "dtype": "float32"}, "inbound_nodes": [[["b_25_relu", 0, 0, {}], ["residual_2_26_batch_norm", 0, 0, {}]]]}, {"name": "b_26_relu", "class_name": "Activation", "config": {"name": "b_26_relu", "trainable": true, "dtype": "float32", "activation": "relu"}, "inbound_nodes": [[["add_26", 0, 0, {}]]]}, {"name": "residual_1_27_conv_block", "class_name": "Conv2D", "config": {"name": "residual_1_27_conv_block", "trainable": true, "dtype": "float32", "filters": 256, "kernel_size": [3, 3], "strides": [1, 1], "padding": "same", "data_format": "channels_last", "dilation_rate": [1, 1], "activation": "linear", "use_bias": true, "kernel_initializer": {"class_name": "Zeros", "config": {}}, "bias_initializer": {"class_name": "Zeros", "config": {}}, "kernel_regularizer": null, "bias_regularizer": null, "activity_regularizer": null, "kernel_constraint": null, "bias_constraint": null}, "inbound_nodes": [[["b_26_relu", 0, 0, {}]]]}, {"name": "residual_1_27_batch_norm", "class_name": "BatchNormalization", "config": {"name": "residual_1_27_batch_norm", "trainable": true, "dtype": "float32", "axis": [3], "momentum": 0.99, "epsilon": 1e-05, "center": false, "scale": false, "beta_initializer": {"class_name": "Zeros", "config": {}}, "gamma_initializer": {"class_name": "Ones", "config": {}}, "moving_mean_initializer": {"class_name": "Zeros", "config": {}}, "moving_variance_initializer": {"class_name": "Ones", "config": {}}, "beta_regularizer": null, "gamma_regularizer": null, "beta_constraint": null, "gamma_constraint": null}, "inbound_nodes": [[["residual_1_27_conv_block", 0, 0, {}]]]}, {"name": "b_residual_1_27_relu", "class_name": "Activation", "config": {"name": "b_residual_1_27_relu", "trainable": true, "dtype": "float32", "activation": "relu"}, "inbound_nodes": [[["residual_1_27_batch_norm", 0, 0, {}]]]}, {"name": "residual_2_27_conv_block", "class_name": "Conv2D", "config": {"name": "residual_2_27_conv_block", "trainable": true, "dtype": "float32", "filters": 256, "kernel_size": [3, 3], "strides": [1, 1], "padding": "same", "data_format": "channels_last", "dilation_rate": [1, 1], "activation": "linear", "use_bias": true, "kernel_initializer": {"class_name": "Zeros", "config": {}}, "bias_initializer": {"class_name": "Zeros", "config": {}}, "kernel_regularizer": null, "bias_regularizer": null, "activity_regularizer": null, "kernel_constraint": null, "bias_constraint": null}, "inbound_nodes": [[["b_residual_1_27_relu", 0, 0, {}]]]}, {"name": "residual_2_27_batch_norm", "class_name": "BatchNormalization", "config": {"name": "residual_2_27_batch_norm", "trainable": true, "dtype": "float32", "axis": [3], "momentum": 0.99, "epsilon": 1e-05, "center": false, "scale": false, "beta_initializer": {"class_name": "Zeros", "config": {}}, "gamma_initializer": {"class_name": "Ones", "config": {}}, "moving_mean_initializer": {"class_name": "Zeros", "config": {}}, "moving_variance_initializer": {"class_name": "Ones", "config": {}}, "beta_regularizer": null, "gamma_regularizer": null, "beta_constraint": null, "gamma_constraint": null}, "inbound_nodes": [[["residual_2_27_conv_block", 0, 0, {}]]]}, {"name": "add_27", "class_name": "Add", "config": {"name": "add_27", "trainable": true, "dtype": "float32"}, "inbound_nodes": [[["b_26_relu", 0, 0, {}], ["residual_2_27_batch_norm", 0, 0, {}]]]}, {"name": "b_27_relu", "class_name": "Activation", "config": {"name": "b_27_relu", "trainable": true, "dtype": "float32", "activation": "relu"}, "inbound_nodes": [[["add_27", 0, 0, {}]]]}, {"name": "residual_1_28_conv_block", "class_name": "Conv2D", "config": {"name": "residual_1_28_conv_block", "trainable": true, "dtype": "float32", "filters": 256, "kernel_size": [3, 3], "strides": [1, 1], "padding": "same", "data_format": "channels_last", "dilation_rate": [1, 1], "activation": "linear", "use_bias": true, "kernel_initializer": {"class_name": "Zeros", "config": {}}, "bias_initializer": {"class_name": "Zeros", "config": {}}, "kernel_regularizer": null, "bias_regularizer": null, "activity_regularizer": null, "kernel_constraint": null, "bias_constraint": null}, "inbound_nodes": [[["b_27_relu", 0, 0, {}]]]}, {"name": "residual_1_28_batch_norm", "class_name": "BatchNormalization", "config": {"name": "residual_1_28_batch_norm", "trainable": true, "dtype": "float32", "axis": [3], "momentum": 0.99, "epsilon": 1e-05, "center": false, "scale": false, "beta_initializer": {"class_name": "Zeros", "config": {}}, "gamma_initializer": {"class_name": "Ones", "config": {}}, "moving_mean_initializer": {"class_name": "Zeros", "config": {}}, "moving_variance_initializer": {"class_name": "Ones", "config": {}}, "beta_regularizer": null, "gamma_regularizer": null, "beta_constraint": null, "gamma_constraint": null}, "inbound_nodes": [[["residual_1_28_conv_block", 0, 0, {}]]]}, {"name": "b_residual_1_28_relu", "class_name": "Activation", "config": {"name": "b_residual_1_28_relu", "trainable": true, "dtype": "float32", "activation": "relu"}, "inbound_nodes": [[["residual_1_28_batch_norm", 0, 0, {}]]]}, {"name": "residual_2_28_conv_block", "class_name": "Conv2D", "config": {"name": "residual_2_28_conv_block", "trainable": true, "dtype": "float32", "filters": 256, "kernel_size": [3, 3], "strides": [1, 1], "padding": "same", "data_format": "channels_last", "dilation_rate": [1, 1], "activation": "linear", "use_bias": true, "kernel_initializer": {"class_name": "Zeros", "config": {}}, "bias_initializer": {"class_name": "Zeros", "config": {}}, "kernel_regularizer": null, "bias_regularizer": null, "activity_regularizer": null, "kernel_constraint": null, "bias_constraint": null}, "inbound_nodes": [[["b_residual_1_28_relu", 0, 0, {}]]]}, {"name": "residual_2_28_batch_norm", "class_name": "BatchNormalization", "config": {"name": "residual_2_28_batch_norm", "trainable": true, "dtype": "float32", "axis": [3], "momentum": 0.99, "epsilon": 1e-05, "center": false, "scale": false, "beta_initializer": {"class_name": "Zeros", "config": {}}, "gamma_initializer": {"class_name": "Ones", "config": {}}, "moving_mean_initializer": {"class_name": "Zeros", "config": {}}, "moving_variance_initializer": {"class_name": "Ones", "config": {}}, "beta_regularizer": null, "gamma_regularizer": null, "beta_constraint": null, "gamma_constraint": null}, "inbound_nodes": [[["residual_2_28_conv_block", 0, 0, {}]]]}, {"name": "add_28", "class_name": "Add", "config": {"name": "add_28", "trainable": true, "dtype": "float32"}, "inbound_nodes": [[["b_27_relu", 0, 0, {}], ["residual_2_28_batch_norm", 0, 0, {}]]]}, {"name": "b_28_relu", "class_name": "Activation", "config": {"name": "b_28_relu", "trainable": true, "dtype": "float32", "activation": "relu"}, "inbound_nodes": [[["add_28", 0, 0, {}]]]}, {"name": "residual_1_29_conv_block", "class_name": "Conv2D", "config": {"name": "residual_1_29_conv_block", "trainable": true, "dtype": "float32", "filters": 256, "kernel_size": [3, 3], "strides": [1, 1], "padding": "same", "data_format": "channels_last", "dilation_rate": [1, 1], "activation": "linear", "use_bias": true, "kernel_initializer": {"class_name": "Zeros", "config": {}}, "bias_initializer": {"class_name": "Zeros", "config": {}}, "kernel_regularizer": null, "bias_regularizer": null, "activity_regularizer": null, "kernel_constraint": null, "bias_constraint": null}, "inbound_nodes": [[["b_28_relu", 0, 0, {}]]]}, {"name": "residual_1_29_batch_norm", "class_name": "BatchNormalization", "config": {"name": "residual_1_29_batch_norm", "trainable": true, "dtype": "float32", "axis": [3], "momentum": 0.99, "epsilon": 1e-05, "center": false, "scale": false, "beta_initializer": {"class_name": "Zeros", "config": {}}, "gamma_initializer": {"class_name": "Ones", "config": {}}, "moving_mean_initializer": {"class_name": "Zeros", "config": {}}, "moving_variance_initializer": {"class_name": "Ones", "config": {}}, "beta_regularizer": null, "gamma_regularizer": null, "beta_constraint": null, "gamma_constraint": null}, "inbound_nodes": [[["residual_1_29_conv_block", 0, 0, {}]]]}, {"name": "b_residual_1_29_relu", "class_name": "Activation", "config": {"name": "b_residual_1_29_relu", "trainable": true, "dtype": "float32", "activation": "relu"}, "inbound_nodes": [[["residual_1_29_batch_norm", 0, 0, {}]]]}, {"name": "residual_2_29_conv_block", "class_name": "Conv2D", "config": {"name": "residual_2_29_conv_block", "trainable": true, "dtype": "float32", "filters": 256, "kernel_size": [3, 3], "strides": [1, 1], "padding": "same", "data_format": "channels_last", "dilation_rate": [1, 1], "activation": "linear", "use_bias": true, "kernel_initializer": {"class_name": "Zeros", "config": {}}, "bias_initializer": {"class_name": "Zeros", "config": {}}, "kernel_regularizer": null, "bias_regularizer": null, "activity_regularizer": null, "kernel_constraint": null, "bias_constraint": null}, "inbound_nodes": [[["b_residual_1_29_relu", 0, 0, {}]]]}, {"name": "residual_2_29_batch_norm", "class_name": "BatchNormalization", "config": {"name": "residual_2_29_batch_norm", "trainable": true, "dtype": "float32", "axis": [3], "momentum": 0.99, "epsilon": 1e-05, "center": false, "scale": false, "beta_initializer": {"class_name": "Zeros", "config": {}}, "gamma_initializer": {"class_name": "Ones", "config": {}}, "moving_mean_initializer": {"class_name": "Zeros", "config": {}}, "moving_variance_initializer": {"class_name": "Ones", "config": {}}, "beta_regularizer": null, "gamma_regularizer": null, "beta_constraint": null, "gamma_constraint": null}, "inbound_nodes": [[["residual_2_29_conv_block", 0, 0, {}]]]}, {"name": "add_29", "class_name": "Add", "config": {"name": "add_29", "trainable": true, "dtype": "float32"}, "inbound_nodes": [[["b_28_relu", 0, 0, {}], ["residual_2_29_batch_norm", 0, 0, {}]]]}, {"name": "b_29_relu", "class_name": "Activation", "config": {"name": "b_29_relu", "trainable": true, "dtype": "float32", "activation": "relu"}, "inbound_nodes": [[["add_29", 0, 0, {}]]]}, {"name": "residual_1_30_conv_block", "class_name": "Conv2D", "config": {"name": "residual_1_30_conv_block", "trainable": true, "dtype": "float32", "filters": 256, "kernel_size": [3, 3], "strides": [1, 1], "padding": "same", "data_format": "channels_last", "dilation_rate": [1, 1], "activation": "linear", "use_bias": true, "kernel_initializer": {"class_name": "Zeros", "config": {}}, "bias_initializer": {"class_name": "Zeros", "config": {}}, "kernel_regularizer": null, "bias_regularizer": null, "activity_regularizer": null, "kernel_constraint": null, "bias_constraint": null}, "inbound_nodes": [[["b_29_relu", 0, 0, {}]]]}, {"name": "residual_1_30_batch_norm", "class_name": "BatchNormalization", "config": {"name": "residual_1_30_batch_norm", "trainable": true, "dtype": "float32", "axis": [3], "momentum": 0.99, "epsilon": 1e-05, "center": false, "scale": false, "beta_initializer": {"class_name": "Zeros", "config": {}}, "gamma_initializer": {"class_name": "Ones", "config": {}}, "moving_mean_initializer": {"class_name": "Zeros", "config": {}}, "moving_variance_initializer": {"class_name": "Ones", "config": {}}, "beta_regularizer": null, "gamma_regularizer": null, "beta_constraint": null, "gamma_constraint": null}, "inbound_nodes": [[["residual_1_30_conv_block", 0, 0, {}]]]}, {"name": "b_residual_1_30_relu", "class_name": "Activation", "config": {"name": "b_residual_1_30_relu", "trainable": true, "dtype": "float32", "activation": "relu"}, "inbound_nodes": [[["residual_1_30_batch_norm", 0, 0, {}]]]}, {"name": "residual_2_30_conv_block", "class_name": "Conv2D", "config": {"name": "residual_2_30_conv_block", "trainable": true, "dtype": "float32", "filters": 256, "kernel_size": [3, 3], "strides": [1, 1], "padding": "same", "data_format": "channels_last", "dilation_rate": [1, 1], "activation": "linear", "use_bias": true, "kernel_initializer": {"class_name": "Zeros", "config": {}}, "bias_initializer": {"class_name": "Zeros", "config": {}}, "kernel_regularizer": null, "bias_regularizer": null, "activity_regularizer": null, "kernel_constraint": null, "bias_constraint": null}, "inbound_nodes": [[["b_residual_1_30_relu", 0, 0, {}]]]}, {"name": "residual_2_30_batch_norm", "class_name": "BatchNormalization", "config": {"name": "residual_2_30_batch_norm", "trainable": true, "dtype": "float32", "axis": [3], "momentum": 0.99, "epsilon": 1e-05, "center": false, "scale": false, "beta_initializer": {"class_name": "Zeros", "config": {}}, "gamma_initializer": {"class_name": "Ones", "config": {}}, "moving_mean_initializer": {"class_name": "Zeros", "config": {}}, "moving_variance_initializer": {"class_name": "Ones", "config": {}}, "beta_regularizer": null, "gamma_regularizer": null, "beta_constraint": null, "gamma_constraint": null}, "inbound_nodes": [[["residual_2_30_conv_block", 0, 0, {}]]]}, {"name": "add_30", "class_name": "Add", "config": {"name": "add_30", "trainable": true, "dtype": "float32"}, "inbound_nodes": [[["b_29_relu", 0, 0, {}], ["residual_2_30_batch_norm", 0, 0, {}]]]}, {"name": "b_30_relu", "class_name": "Activation", "config": {"name": "b_30_relu", "trainable": true, "dtype": "float32", "activation": "relu"}, "inbound_nodes": [[["add_30", 0, 0, {}]]]}, {"name": "residual_1_31_conv_block", "class_name": "Conv2D", "config": {"name": "residual_1_31_conv_block", "trainable": true, "dtype": "float32", "filters": 256, "kernel_size": [3, 3], "strides": [1, 1], "padding": "same", "data_format": "channels_last", "dilation_rate": [1, 1], "activation": "linear", "use_bias": true, "kernel_initializer": {"class_name": "Zeros", "config": {}}, "bias_initializer": {"class_name": "Zeros", "config": {}}, "kernel_regularizer": null, "bias_regularizer": null, "activity_regularizer": null, "kernel_constraint": null, "bias_constraint": null}, "inbound_nodes": [[["b_30_relu", 0, 0, {}]]]}, {"name": "residual_1_31_batch_norm", "class_name": "BatchNormalization", "config": {"name": "residual_1_31_batch_norm", "trainable": true, "dtype": "float32", "axis": [3], "momentum": 0.99, "epsilon": 1e-05, "center": false, "scale": false, "beta_initializer": {"class_name": "Zeros", "config": {}}, "gamma_initializer": {"class_name": "Ones", "config": {}}, "moving_mean_initializer": {"class_name": "Zeros", "config": {}}, "moving_variance_initializer": {"class_name": "Ones", "config": {}}, "beta_regularizer": null, "gamma_regularizer": null, "beta_constraint": null, "gamma_constraint": null}, "inbound_nodes": [[["residual_1_31_conv_block", 0, 0, {}]]]}, {"name": "b_residual_1_31_relu", "class_name": "Activation", "config": {"name": "b_residual_1_31_relu", "trainable": true, "dtype": "float32", "activation": "relu"}, "inbound_nodes": [[["residual_1_31_batch_norm", 0, 0, {}]]]}, {"name": "residual_2_31_conv_block", "class_name": "Conv2D", "config": {"name": "residual_2_31_conv_block", "trainable": true, "dtype": "float32", "filters": 256, "kernel_size": [3, 3], "strides": [1, 1], "padding": "same", "data_format": "channels_last", "dilation_rate": [1, 1], "activation": "linear", "use_bias": true, "kernel_initializer": {"class_name": "Zeros", "config": {}}, "bias_initializer": {"class_name": "Zeros", "config": {}}, "kernel_regularizer": null, "bias_regularizer": null, "activity_regularizer": null, "kernel_constraint": null, "bias_constraint": null}, "inbound_nodes": [[["b_residual_1_31_relu", 0, 0, {}]]]}, {"name": "residual_2_31_batch_norm", "class_name": "BatchNormalization", "config": {"name": "residual_2_31_batch_norm", "trainable": true, "dtype": "float32", "axis": [3], "momentum": 0.99, "epsilon": 1e-05, "center": false, "scale": false, "beta_initializer": {"class_name": "Zeros", "config": {}}, "gamma_initializer": {"class_name": "Ones", "config": {}}, "moving_mean_initializer": {"class_name": "Zeros", "config": {}}, "moving_variance_initializer": {"class_name": "Ones", "config": {}}, "beta_regularizer": null, "gamma_regularizer": null, "beta_constraint": null, "gamma_constraint": null}, "inbound_nodes": [[["residual_2_31_conv_block", 0, 0, {}]]]}, {"name": "add_31", "class_name": "Add", "config": {"name": "add_31", "trainable": true, "dtype": "float32"}, "inbound_nodes": [[["b_30_relu", 0, 0, {}], ["residual_2_31_batch_norm", 0, 0, {}]]]}, {"name": "b_31_relu", "class_name": "Activation", "config": {"name": "b_31_relu", "trainable": true, "dtype": "float32", "activation": "relu"}, "inbound_nodes": [[["add_31", 0, 0, {}]]]}, {"name": "residual_1_32_conv_block", "class_name": "Conv2D", "config": {"name": "residual_1_32_conv_block", "trainable": true, "dtype": "float32", "filters": 256, "kernel_size": [3, 3], "strides": [1, 1], "padding": "same", "data_format": "channels_last", "dilation_rate": [1, 1], "activation": "linear", "use_bias": true, "kernel_initializer": {"class_name": "Zeros", "config": {}}, "bias_initializer": {"class_name": "Zeros", "config": {}}, "kernel_regularizer": null, "bias_regularizer": null, "activity_regularizer": null, "kernel_constraint": null, "bias_constraint": null}, "inbound_nodes": [[["b_31_relu", 0, 0, {}]]]}, {"name": "residual_1_32_batch_norm", "class_name": "BatchNormalization", "config": {"name": "residual_1_32_batch_norm", "trainable": true, "dtype": "float32", "axis": [3], "momentum": 0.99, "epsilon": 1e-05, "center": false, "scale": false, "beta_initializer": {"class_name": "Zeros", "config": {}}, "gamma_initializer": {"class_name": "Ones", "config": {}}, "moving_mean_initializer": {"class_name": "Zeros", "config": {}}, "moving_variance_initializer": {"class_name": "Ones", "config": {}}, "beta_regularizer": null, "gamma_regularizer": null, "beta_constraint": null, "gamma_constraint": null}, "inbound_nodes": [[["residual_1_32_conv_block", 0, 0, {}]]]}, {"name": "b_residual_1_32_relu", "class_name": "Activation", "config": {"name": "b_residual_1_32_relu", "trainable": true, "dtype": "float32", "activation": "relu"}, "inbound_nodes": [[["residual_1_32_batch_norm", 0, 0, {}]]]}, {"name": "residual_2_32_conv_block", "class_name": "Conv2D", "config": {"name": "residual_2_32_conv_block", "trainable": true, "dtype": "float32", "filters": 256, "kernel_size": [3, 3], "strides": [1, 1], "padding": "same", "data_format": "channels_last", "dilation_rate": [1, 1], "activation": "linear", "use_bias": true, "kernel_initializer": {"class_name": "Zeros", "config": {}}, "bias_initializer": {"class_name": "Zeros", "config": {}}, "kernel_regularizer": null, "bias_regularizer": null, "activity_regularizer": null, "kernel_constraint": null, "bias_constraint": null}, "inbound_nodes": [[["b_residual_1_32_relu", 0, 0, {}]]]}, {"name": "residual_2_32_batch_norm", "class_name": "BatchNormalization", "config": {"name": "residual_2_32_batch_norm", "trainable": true, "dtype": "float32", "axis": [3], "momentum": 0.99, "epsilon": 1e-05, "center": false, "scale": false, "beta_initializer": {"class_name": "Zeros", "config": {}}, "gamma_initializer": {"class_name": "Ones", "config": {}}, "moving_mean_initializer": {"class_name": "Zeros", "config": {}}, "moving_variance_initializer": {"class_name": "Ones", "config": {}}, "beta_regularizer": null, "gamma_regularizer": null, "beta_constraint": null, "gamma_constraint": null}, "inbound_nodes": [[["residual_2_32_conv_block", 0, 0, {}]]]}, {"name": "add_32", "class_name": "Add", "config": {"name": "add_32", "trainable": true, "dtype": "float32"}, "inbound_nodes": [[["b_31_relu", 0, 0, {}], ["residual_2_32_batch_norm", 0, 0, {}]]]}, {"name": "b_32_relu", "class_name": "Activation", "config": {"name": "b_32_relu", "trainable": true, "dtype": "float32", "activation": "relu"}, "inbound_nodes": [[["add_32", 0, 0, {}]]]}, {"name": "residual_1_33_conv_block", "class_name": "Conv2D", "config": {"name": "residual_1_33_conv_block", "trainable": true, "dtype": "float32", "filters": 256, "kernel_size": [3, 3], "strides": [1, 1], "padding": "same", "data_format": "channels_last", "dilation_rate": [1, 1], "activation": "linear", "use_bias": true, "kernel_initializer": {"class_name": "Zeros", "config": {}}, "bias_initializer": {"class_name": "Zeros", "config": {}}, "kernel_regularizer": null, "bias_regularizer": null, "activity_regularizer": null, "kernel_constraint": null, "bias_constraint": null}, "inbound_nodes": [[["b_32_relu", 0, 0, {}]]]}, {"name": "residual_1_33_batch_norm", "class_name": "BatchNormalization", "config": {"name": "residual_1_33_batch_norm", "trainable": true, "dtype": "float32", "axis": [3], "momentum": 0.99, "epsilon": 1e-05, "center": false, "scale": false, "beta_initializer": {"class_name": "Zeros", "config": {}}, "gamma_initializer": {"class_name": "Ones", "config": {}}, "moving_mean_initializer": {"class_name": "Zeros", "config": {}}, "moving_variance_initializer": {"class_name": "Ones", "config": {}}, "beta_regularizer": null, "gamma_regularizer": null, "beta_constraint": null, "gamma_constraint": null}, "inbound_nodes": [[["residual_1_33_conv_block", 0, 0, {}]]]}, {"name": "b_residual_1_33_relu", "class_name": "Activation", "config": {"name": "b_residual_1_33_relu", "trainable": true, "dtype": "float32", "activation": "relu"}, "inbound_nodes": [[["residual_1_33_batch_norm", 0, 0, {}]]]}, {"name": "residual_2_33_conv_block", "class_name": "Conv2D", "config": {"name": "residual_2_33_conv_block", "trainable": true, "dtype": "float32", "filters": 256, "kernel_size": [3, 3], "strides": [1, 1], "padding": "same", "data_format": "channels_last", "dilation_rate": [1, 1], "activation": "linear", "use_bias": true, "kernel_initializer": {"class_name": "Zeros", "config": {}}, "bias_initializer": {"class_name": "Zeros", "config": {}}, "kernel_regularizer": null, "bias_regularizer": null, "activity_regularizer": null, "kernel_constraint": null, "bias_constraint": null}, "inbound_nodes": [[["b_residual_1_33_relu", 0, 0, {}]]]}, {"name": "residual_2_33_batch_norm", "class_name": "BatchNormalization", "config": {"name": "residual_2_33_batch_norm", "trainable": true, "dtype": "float32", "axis": [3], "momentum": 0.99, "epsilon": 1e-05, "center": false, "scale": false, "beta_initializer": {"class_name": "Zeros", "config": {}}, "gamma_initializer": {"class_name": "Ones", "config": {}}, "moving_mean_initializer": {"class_name": "Zeros", "config": {}}, "moving_variance_initializer": {"class_name": "Ones", "config": {}}, "beta_regularizer": null, "gamma_regularizer": null, "beta_constraint": null, "gamma_constraint": null}, "inbound_nodes": [[["residual_2_33_conv_block", 0, 0, {}]]]}, {"name": "add_33", "class_name": "Add", "config": {"name": "add_33", "trainable": true, "dtype": "float32"}, "inbound_nodes": [[["b_32_relu", 0, 0, {}], ["residual_2_33_batch_norm", 0, 0, {}]]]}, {"name": "b_33_relu", "class_name": "Activation", "config": {"name": "b_33_relu", "trainable": true, "dtype": "float32", "activation": "relu"}, "inbound_nodes": [[["add_33", 0, 0, {}]]]}, {"name": "residual_1_34_conv_block", "class_name": "Conv2D", "config": {"name": "residual_1_34_conv_block", "trainable": true, "dtype": "float32", "filters": 256, "kernel_size": [3, 3], "strides": [1, 1], "padding": "same", "data_format": "channels_last", "dilation_rate": [1, 1], "activation": "linear", "use_bias": true, "kernel_initializer": {"class_name": "Zeros", "config": {}}, "bias_initializer": {"class_name": "Zeros", "config": {}}, "kernel_regularizer": null, "bias_regularizer": null, "activity_regularizer": null, "kernel_constraint": null, "bias_constraint": null}, "inbound_nodes": [[["b_33_relu", 0, 0, {}]]]}, {"name": "residual_1_34_batch_norm", "class_name": "BatchNormalization", "config": {"name": "residual_1_34_batch_norm", "trainable": true, "dtype": "float32", "axis": [3], "momentum": 0.99, "epsilon": 1e-05, "center": false, "scale": false, "beta_initializer": {"class_name": "Zeros", "config": {}}, "gamma_initializer": {"class_name": "Ones", "config": {}}, "moving_mean_initializer": {"class_name": "Zeros", "config": {}}, "moving_variance_initializer": {"class_name": "Ones", "config": {}}, "beta_regularizer": null, "gamma_regularizer": null, "beta_constraint": null, "gamma_constraint": null}, "inbound_nodes": [[["residual_1_34_conv_block", 0, 0, {}]]]}, {"name": "b_residual_1_34_relu", "class_name": "Activation", "config": {"name": "b_residual_1_34_relu", "trainable": true, "dtype": "float32", "activation": "relu"}, "inbound_nodes": [[["residual_1_34_batch_norm", 0, 0, {}]]]}, {"name": "residual_2_34_conv_block", "class_name": "Conv2D", "config": {"name": "residual_2_34_conv_block", "trainable": true, "dtype": "float32", "filters": 256, "kernel_size": [3, 3], "strides": [1, 1], "padding": "same", "data_format": "channels_last", "dilation_rate": [1, 1], "activation": "linear", "use_bias": true, "kernel_initializer": {"class_name": "Zeros", "config": {}}, "bias_initializer": {"class_name": "Zeros", "config": {}}, "kernel_regularizer": null, "bias_regularizer": null, "activity_regularizer": null, "kernel_constraint": null, "bias_constraint": null}, "inbound_nodes": [[["b_residual_1_34_relu", 0, 0, {}]]]}, {"name": "residual_2_34_batch_norm", "class_name": "BatchNormalization", "config": {"name": "residual_2_34_batch_norm", "trainable": true, "dtype": "float32", "axis": [3], "momentum": 0.99, "epsilon": 1e-05, "center": false, "scale": false, "beta_initializer": {"class_name": "Zeros", "config": {}}, "gamma_initializer": {"class_name": "Ones", "config": {}}, "moving_mean_initializer": {"class_name": "Zeros", "config": {}}, "moving_variance_initializer": {"class_name": "Ones", "config": {}}, "beta_regularizer": null, "gamma_regularizer": null, "beta_constraint": null, "gamma_constraint": null}, "inbound_nodes": [[["residual_2_34_conv_block", 0, 0, {}]]]}, {"name": "add_34", "class_name": "Add", "config": {"name": "add_34", "trainable": true, "dtype": "float32"}, "inbound_nodes": [[["b_33_relu", 0, 0, {}], ["residual_2_34_batch_norm", 0, 0, {}]]]}, {"name": "b_34_relu", "class_name": "Activation", "config": {"name": "b_34_relu", "trainable": true, "dtype": "float32", "activation": "relu"}, "inbound_nodes": [[["add_34", 0, 0, {}]]]}, {"name": "residual_1_35_conv_block", "class_name": "Conv2D", "config": {"name": "residual_1_35_conv_block", "trainable": true, "dtype": "float32", "filters": 256, "kernel_size": [3, 3], "strides": [1, 1], "padding": "same", "data_format": "channels_last", "dilation_rate": [1, 1], "activation": "linear", "use_bias": true, "kernel_initializer": {"class_name": "Zeros", "config": {}}, "bias_initializer": {"class_name": "Zeros", "config": {}}, "kernel_regularizer": null, "bias_regularizer": null, "activity_regularizer": null, "kernel_constraint": null, "bias_constraint": null}, "inbound_nodes": [[["b_34_relu", 0, 0, {}]]]}, {"name": "residual_1_35_batch_norm", "class_name": "BatchNormalization", "config": {"name": "residual_1_35_batch_norm", "trainable": true, "dtype": "float32", "axis": [3], "momentum": 0.99, "epsilon": 1e-05, "center": false, "scale": false, "beta_initializer": {"class_name": "Zeros", "config": {}}, "gamma_initializer": {"class_name": "Ones", "config": {}}, "moving_mean_initializer": {"class_name": "Zeros", "config": {}}, "moving_variance_initializer": {"class_name": "Ones", "config": {}}, "beta_regularizer": null, "gamma_regularizer": null, "beta_constraint": null, "gamma_constraint": null}, "inbound_nodes": [[["residual_1_35_conv_block", 0, 0, {}]]]}, {"name": "b_residual_1_35_relu", "class_name": "Activation", "config": {"name": "b_residual_1_35_relu", "trainable": true, "dtype": "float32", "activation": "relu"}, "inbound_nodes": [[["residual_1_35_batch_norm", 0, 0, {}]]]}, {"name": "residual_2_35_conv_block", "class_name": "Conv2D", "config": {"name": "residual_2_35_conv_block", "trainable": true, "dtype": "float32", "filters": 256, "kernel_size": [3, 3], "strides": [1, 1], "padding": "same", "data_format": "channels_last", "dilation_rate": [1, 1], "activation": "linear", "use_bias": true, "kernel_initializer": {"class_name": "Zeros", "config": {}}, "bias_initializer": {"class_name": "Zeros", "config": {}}, "kernel_regularizer": null, "bias_regularizer": null, "activity_regularizer": null, "kernel_constraint": null, "bias_constraint": null}, "inbound_nodes": [[["b_residual_1_35_relu", 0, 0, {}]]]}, {"name": "residual_2_35_batch_norm", "class_name": "BatchNormalization", "config": {"name": "residual_2_35_batch_norm", "trainable": true, "dtype": "float32", "axis": [3], "momentum": 0.99, "epsilon": 1e-05, "center": false, "scale": false, "beta_initializer": {"class_name": "Zeros", "config": {}}, "gamma_initializer": {"class_name": "Ones", "config": {}}, "moving_mean_initializer": {"class_name": "Zeros", "config": {}}, "moving_variance_initializer": {"class_name": "Ones", "config": {}}, "beta_regularizer": null, "gamma_regularizer": null, "beta_constraint": null, "gamma_constraint": null}, "inbound_nodes": [[["residual_2_35_conv_block", 0, 0, {}]]]}, {"name": "add_35", "class_name": "Add", "config": {"name": "add_35", "trainable": true, "dtype": "float32"}, "inbound_nodes": [[["b_34_relu", 0, 0, {}], ["residual_2_35_batch_norm", 0, 0, {}]]]}, {"name": "b_35_relu", "class_name": "Activation", "config": {"name": "b_35_relu", "trainable": true, "dtype": "float32", "activation": "relu"}, "inbound_nodes": [[["add_35", 0, 0, {}]]]}, {"name": "residual_1_36_conv_block", "class_name": "Conv2D", "config": {"name": "residual_1_36_conv_block", "trainable": true, "dtype": "float32", "filters": 256, "kernel_size": [3, 3], "strides": [1, 1], "padding": "same", "data_format": "channels_last", "dilation_rate": [1, 1], "activation": "linear", "use_bias": true, "kernel_initializer": {"class_name": "Zeros", "config": {}}, "bias_initializer": {"class_name": "Zeros", "config": {}}, "kernel_regularizer": null, "bias_regularizer": null, "activity_regularizer": null, "kernel_constraint": null, "bias_constraint": null}, "inbound_nodes": [[["b_35_relu", 0, 0, {}]]]}, {"name": "residual_1_36_batch_norm", "class_name": "BatchNormalization", "config": {"name": "residual_1_36_batch_norm", "trainable": true, "dtype": "float32", "axis": [3], "momentum": 0.99, "epsilon": 1e-05, "center": false, "scale": false, "beta_initializer": {"class_name": "Zeros", "config": {}}, "gamma_initializer": {"class_name": "Ones", "config": {}}, "moving_mean_initializer": {"class_name": "Zeros", "config": {}}, "moving_variance_initializer": {"class_name": "Ones", "config": {}}, "beta_regularizer": null, "gamma_regularizer": null, "beta_constraint": null, "gamma_constraint": null}, "inbound_nodes": [[["residual_1_36_conv_block", 0, 0, {}]]]}, {"name": "b_residual_1_36_relu", "class_name": "Activation", "config": {"name": "b_residual_1_36_relu", "trainable": true, "dtype": "float32", "activation": "relu"}, "inbound_nodes": [[["residual_1_36_batch_norm", 0, 0, {}]]]}, {"name": "residual_2_36_conv_block", "class_name": "Conv2D", "config": {"name": "residual_2_36_conv_block", "trainable": true, "dtype": "float32", "filters": 256, "kernel_size": [3, 3], "strides": [1, 1], "padding": "same", "data_format": "channels_last", "dilation_rate": [1, 1], "activation": "linear", "use_bias": true, "kernel_initializer": {"class_name": "Zeros", "config": {}}, "bias_initializer": {"class_name": "Zeros", "config": {}}, "kernel_regularizer": null, "bias_regularizer": null, "activity_regularizer": null, "kernel_constraint": null, "bias_constraint": null}, "inbound_nodes": [[["b_residual_1_36_relu", 0, 0, {}]]]}, {"name": "residual_2_36_batch_norm", "class_name": "BatchNormalization", "config": {"name": "residual_2_36_batch_norm", "trainable": true, "dtype": "float32", "axis": [3], "momentum": 0.99, "epsilon": 1e-05, "center": false, "scale": false, "beta_initializer": {"class_name": "Zeros", "config": {}}, "gamma_initializer": {"class_name": "Ones", "config": {}}, "moving_mean_initializer": {"class_name": "Zeros", "config": {}}, "moving_variance_initializer": {"class_name": "Ones", "config": {}}, "beta_regularizer": null, "gamma_regularizer": null, "beta_constraint": null, "gamma_constraint": null}, "inbound_nodes": [[["residual_2_36_conv_block", 0, 0, {}]]]}, {"name": "add_36", "class_name": "Add", "config": {"name": "add_36", "trainable": true, "dtype": "float32"}, "inbound_nodes": [[["b_35_relu", 0, 0, {}], ["residual_2_36_batch_norm", 0, 0, {}]]]}, {"name": "b_36_relu", "class_name": "Activation", "config": {"name": "b_36_relu", "trainable": true, "dtype": "float32", "activation": "relu"}, "inbound_nodes": [[["add_36", 0, 0, {}]]]}, {"name": "residual_1_37_conv_block", "class_name": "Conv2D", "config": {"name": "residual_1_37_conv_block", "trainable": true, "dtype": "float32", "filters": 256, "kernel_size": [3, 3], "strides": [1, 1], "padding": "same", "data_format": "channels_last", "dilation_rate": [1, 1], "activation": "linear", "use_bias": true, "kernel_initializer": {"class_name": "Zeros", "config": {}}, "bias_initializer": {"class_name": "Zeros", "config": {}}, "kernel_regularizer": null, "bias_regularizer": null, "activity_regularizer": null, "kernel_constraint": null, "bias_constraint": null}, "inbound_nodes": [[["b_36_relu", 0, 0, {}]]]}, {"name": "residual_1_37_batch_norm", "class_name": "BatchNormalization", "config": {"name": "residual_1_37_batch_norm", "trainable": true, "dtype": "float32", "axis": [3], "momentum": 0.99, "epsilon": 1e-05, "center": false, "scale": false, "beta_initializer": {"class_name": "Zeros", "config": {}}, "gamma_initializer": {"class_name": "Ones", "config": {}}, "moving_mean_initializer": {"class_name": "Zeros", "config": {}}, "moving_variance_initializer": {"class_name": "Ones", "config": {}}, "beta_regularizer": null, "gamma_regularizer": null, "beta_constraint": null, "gamma_constraint": null}, "inbound_nodes": [[["residual_1_37_conv_block", 0, 0, {}]]]}, {"name": "b_residual_1_37_relu", "class_name": "Activation", "config": {"name": "b_residual_1_37_relu", "trainable": true, "dtype": "float32", "activation": "relu"}, "inbound_nodes": [[["residual_1_37_batch_norm", 0, 0, {}]]]}, {"name": "residual_2_37_conv_block", "class_name": "Conv2D", "config": {"name": "residual_2_37_conv_block", "trainable": true, "dtype": "float32", "filters": 256, "kernel_size": [3, 3], "strides": [1, 1], "padding": "same", "data_format": "channels_last", "dilation_rate": [1, 1], "activation": "linear", "use_bias": true, "kernel_initializer": {"class_name": "Zeros", "config": {}}, "bias_initializer": {"class_name": "Zeros", "config": {}}, "kernel_regularizer": null, "bias_regularizer": null, "activity_regularizer": null, "kernel_constraint": null, "bias_constraint": null}, "inbound_nodes": [[["b_residual_1_37_relu", 0, 0, {}]]]}, {"name": "residual_2_37_batch_norm", "class_name": "BatchNormalization", "config": {"name": "residual_2_37_batch_norm", "trainable": true, "dtype": "float32", "axis": [3], "momentum": 0.99, "epsilon": 1e-05, "center": false, "scale": false, "beta_initializer": {"class_name": "Zeros", "config": {}}, "gamma_initializer": {"class_name": "Ones", "config": {}}, "moving_mean_initializer": {"class_name": "Zeros", "config": {}}, "moving_variance_initializer": {"class_name": "Ones", "config": {}}, "beta_regularizer": null, "gamma_regularizer": null, "beta_constraint": null, "gamma_constraint": null}, "inbound_nodes": [[["residual_2_37_conv_block", 0, 0, {}]]]}, {"name": "add_37", "class_name": "Add", "config": {"name": "add_37", "trainable": true, "dtype": "float32"}, "inbound_nodes": [[["b_36_relu", 0, 0, {}], ["residual_2_37_batch_norm", 0, 0, {}]]]}, {"name": "b_37_relu", "class_name": "Activation", "config": {"name": "b_37_relu", "trainable": true, "dtype": "float32", "activation": "relu"}, "inbound_nodes": [[["add_37", 0, 0, {}]]]}, {"name": "residual_1_38_conv_block", "class_name": "Conv2D", "config": {"name": "residual_1_38_conv_block", "trainable": true, "dtype": "float32", "filters": 256, "kernel_size": [3, 3], "strides": [1, 1], "padding": "same", "data_format": "channels_last", "dilation_rate": [1, 1], "activation": "linear", "use_bias": true, "kernel_initializer": {"class_name": "Zeros", "config": {}}, "bias_initializer": {"class_name": "Zeros", "config": {}}, "kernel_regularizer": null, "bias_regularizer": null, "activity_regularizer": null, "kernel_constraint": null, "bias_constraint": null}, "inbound_nodes": [[["b_37_relu", 0, 0, {}]]]}, {"name": "residual_1_38_batch_norm", "class_name": "BatchNormalization", "config": {"name": "residual_1_38_batch_norm", "trainable": true, "dtype": "float32", "axis": [3], "momentum": 0.99, "epsilon": 1e-05, "center": false, "scale": false, "beta_initializer": {"class_name": "Zeros", "config": {}}, "gamma_initializer": {"class_name": "Ones", "config": {}}, "moving_mean_initializer": {"class_name": "Zeros", "config": {}}, "moving_variance_initializer": {"class_name": "Ones", "config": {}}, "beta_regularizer": null, "gamma_regularizer": null, "beta_constraint": null, "gamma_constraint": null}, "inbound_nodes": [[["residual_1_38_conv_block", 0, 0, {}]]]}, {"name": "b_residual_1_38_relu", "class_name": "Activation", "config": {"name": "b_residual_1_38_relu", "trainable": true, "dtype": "float32", "activation": "relu"}, "inbound_nodes": [[["residual_1_38_batch_norm", 0, 0, {}]]]}, {"name": "residual_2_38_conv_block", "class_name": "Conv2D", "config": {"name": "residual_2_38_conv_block", "trainable": true, "dtype": "float32", "filters": 256, "kernel_size": [3, 3], "strides": [1, 1], "padding": "same", "data_format": "channels_last", "dilation_rate": [1, 1], "activation": "linear", "use_bias": true, "kernel_initializer": {"class_name": "Zeros", "config": {}}, "bias_initializer": {"class_name": "Zeros", "config": {}}, "kernel_regularizer": null, "bias_regularizer": null, "activity_regularizer": null, "kernel_constraint": null, "bias_constraint": null}, "inbound_nodes": [[["b_residual_1_38_relu", 0, 0, {}]]]}, {"name": "residual_2_38_batch_norm", "class_name": "BatchNormalization", "config": {"name": "residual_2_38_batch_norm", "trainable": true, "dtype": "float32", "axis": [3], "momentum": 0.99, "epsilon": 1e-05, "center": false, "scale": false, "beta_initializer": {"class_name": "Zeros", "config": {}}, "gamma_initializer": {"class_name": "Ones", "config": {}}, "moving_mean_initializer": {"class_name": "Zeros", "config": {}}, "moving_variance_initializer": {"class_name": "Ones", "config": {}}, "beta_regularizer": null, "gamma_regularizer": null, "beta_constraint": null, "gamma_constraint": null}, "inbound_nodes": [[["residual_2_38_conv_block", 0, 0, {}]]]}, {"name": "add_38", "class_name": "Add", "config": {"name": "add_38", "trainable": true, "dtype": "float32"}, "inbound_nodes": [[["b_37_relu", 0, 0, {}], ["residual_2_38_batch_norm", 0, 0, {}]]]}, {"name": "b_38_relu", "class_name": "Activation", "config": {"name": "b_38_relu", "trainable": true, "dtype": "float32", "activation": "relu"}, "inbound_nodes": [[["add_38", 0, 0, {}]]]}, {"name": "residual_1_39_conv_block", "class_name": "Conv2D", "config": {"name": "residual_1_39_conv_block", "trainable": true, "dtype": "float32", "filters": 256, "kernel_size": [3, 3], "strides": [1, 1], "padding": "same", "data_format": "channels_last", "dilation_rate": [1, 1], "activation": "linear", "use_bias": true, "kernel_initializer": {"class_name": "Zeros", "config": {}}, "bias_initializer": {"class_name": "Zeros", "config": {}}, "kernel_regularizer": null, "bias_regularizer": null, "activity_regularizer": null, "kernel_constraint": null, "bias_constraint": null}, "inbound_nodes": [[["b_38_relu", 0, 0, {}]]]}, {"name": "residual_1_39_batch_norm", "class_name": "BatchNormalization", "config": {"name": "residual_1_39_batch_norm", "trainable": true, "dtype": "float32", "axis": [3], "momentum": 0.99, "epsilon": 1e-05, "center": false, "scale": false, "beta_initializer": {"class_name": "Zeros", "config": {}}, "gamma_initializer": {"class_name": "Ones", "config": {}}, "moving_mean_initializer": {"class_name": "Zeros", "config": {}}, "moving_variance_initializer": {"class_name": "Ones", "config": {}}, "beta_regularizer": null, "gamma_regularizer": null, "beta_constraint": null, "gamma_constraint": null}, "inbound_nodes": [[["residual_1_39_conv_block", 0, 0, {}]]]}, {"name": "b_residual_1_39_relu", "class_name": "Activation", "config": {"name": "b_residual_1_39_relu", "trainable": true, "dtype": "float32", "activation": "relu"}, "inbound_nodes": [[["residual_1_39_batch_norm", 0, 0, {}]]]}, {"name": "residual_2_39_conv_block", "class_name": "Conv2D", "config": {"name": "residual_2_39_conv_block", "trainable": true, "dtype": "float32", "filters": 256, "kernel_size": [3, 3], "strides": [1, 1], "padding": "same", "data_format": "channels_last", "dilation_rate": [1, 1], "activation": "linear", "use_bias": true, "kernel_initializer": {"class_name": "Zeros", "config": {}}, "bias_initializer": {"class_name": "Zeros", "config": {}}, "kernel_regularizer": null, "bias_regularizer": null, "activity_regularizer": null, "kernel_constraint": null, "bias_constraint": null}, "inbound_nodes": [[["b_residual_1_39_relu", 0, 0, {}]]]}, {"name": "residual_2_39_batch_norm", "class_name": "BatchNormalization", "config": {"name": "residual_2_39_batch_norm", "trainable": true, "dtype": "float32", "axis": [3], "momentum": 0.99, "epsilon": 1e-05, "center": false, "scale": false, "beta_initializer": {"class_name": "Zeros", "config": {}}, "gamma_initializer": {"class_name": "Ones", "config": {}}, "moving_mean_initializer": {"class_name": "Zeros", "config": {}}, "moving_variance_initializer": {"class_name": "Ones", "config": {}}, "beta_regularizer": null, "gamma_regularizer": null, "beta_constraint": null, "gamma_constraint": null}, "inbound_nodes": [[["residual_2_39_conv_block", 0, 0, {}]]]}, {"name": "add_39", "class_name": "Add", "config": {"name": "add_39", "trainable": true, "dtype": "float32"}, "inbound_nodes": [[["b_38_relu", 0, 0, {}], ["residual_2_39_batch_norm", 0, 0, {}]]]}, {"name": "b_39_relu", "class_name": "Activation", "config": {"name": "b_39_relu", "trainable": true, "dtype": "float32", "activation": "relu"}, "inbound_nodes": [[["add_39", 0, 0, {}]]]}, {"name": "value_head_conv_block", "class_name": "Conv2D", "config": {"name": "value_head_conv_block", "trainable": true, "dtype": "float32", "filters": 1, "kernel_size": [1, 1], "strides": [1, 1], "padding": "same", "data_format": "channels_last", "dilation_rate": [1, 1], "activation": "linear", "use_bias": true, "kernel_initializer": {"class_name": "GlorotUniform", "config": {"seed": null}}, "bias_initializer": {"class_name": "Zeros", "config": {}}, "kernel_regularizer": null, "bias_regularizer": null, "activity_regularizer": null, "kernel_constraint": null, "bias_constraint": null}, "inbound_nodes": [[["b_39_relu", 0, 0, {}]]]}, {"name": "policy_head_conv_block", "class_name": "Conv2D", "config": {"name": "policy_head_conv_block", "trainable": true, "dtype": "float32", "filters": 2, "kernel_size": [1, 1], "strides": [1, 1], "padding": "same", "data_format": "channels_last", "dilation_rate": [1, 1], "activation": "linear", "use_bias": true, "kernel_initializer": {"class_name": "GlorotUniform", "config": {"seed": null}}, "bias_initializer": {"class_name": "Zeros", "config": {}}, "kernel_regularizer": null, "bias_regularizer": null, "activity_regularizer": null, "kernel_constraint": null, "bias_constraint": null}, "inbound_nodes": [[["b_39_relu", 0, 0, {}]]]}, {"name": "value_head_batch_norm", "class_name": "BatchNormalization", "config": {"name": "value_head_batch_norm", "trainable": true, "dtype": "float32", "axis": [3], "momentum": 0.99, "epsilon": 1e-05, "center": false, "scale": false, "beta_initializer": {"class_name": "Zeros", "config": {}}, "gamma_initializer": {"class_name": "Ones", "config": {}}, "moving_mean_initializer": {"class_name": "Zeros", "config": {}}, "moving_variance_initializer": {"class_name": "Ones", "config": {}}, "beta_regularizer": null, "gamma_regularizer": null, "beta_constraint": null, "gamma_constraint": null}, "inbound_nodes": [[["value_head_conv_block", 0, 0, {}]]]}, {"name": "policy_head_batch_norm", "class_name": "BatchNormalization", "config": {"name": "policy_head_batch_norm", "trainable": true, "dtype": "float32", "axis": [3], "momentum": 0.99, "epsilon": 1e-05, "center": false, "scale": false, "beta_initializer": {"class_name": "Zeros", "config": {}}, "gamma_initializer": {"class_name": "Ones", "config": {}}, "moving_mean_initializer": {"class_name": "Zeros", "config": {}}, "moving_variance_initializer": {"class_name": "Ones", "config": {}}, "beta_regularizer": null, "gamma_regularizer": null, "beta_constraint": null, "gamma_constraint": null}, "inbound_nodes": [[["policy_head_conv_block", 0, 0, {}]]]}, {"name": "value_head_relu", "class_name": "Activation", "config": {"name": "value_head_relu", "trainable": true, "dtype": "float32", "activation": "relu"}, "inbound_nodes": [[["value_head_batch_norm", 0, 0, {}]]]}, {"name": "policy_head_relu", "class_name": "Activation", "config": {"name": "policy_head_relu", "trainable": true, "dtype": "float32", "activation": "relu"}, "inbound_nodes": [[["policy_head_batch_norm", 0, 0, {}]]]}, {"name": "permute_1", "class_name": "Permute", "config": {"name": "permute_1", "trainable": true, "dtype": "float32", "dims": [3, 1, 2]}, "inbound_nodes": [[["value_head_relu", 0, 0, {}]]]}, {"name": "permute", "class_name": "Permute", "config": {"name": "permute", "trainable": true, "dtype": "float32", "dims": [3, 1, 2]}, "inbound_nodes": [[["policy_head_relu", 0, 0, {}]]]}, {"name": "value_head_flatten", "class_name": "Flatten", "config": {"name": "value_head_flatten", "trainable": true, "dtype": "float32", "data_format": "channels_last"}, "inbound_nodes": [[["permute_1", 0, 0, {}]]]}, {"name": "policy_flatten", "class_name": "Flatten", "config": {"name": "policy_flatten", "trainable": true, "dtype": "float32", "data_format": "channels_last"}, "inbound_nodes": [[["permute", 0, 0, {}]]]}, {"name": "value_head_dense", "class_name": "Dense", "config": {"name": "value_head_dense", "trainable": true, "dtype": "float32", "units": 256, "activation": "relu", "use_bias": true, "kernel_initializer": {"class_name": "GlorotUniform", "config": {"seed": null}}, "bias_initializer": {"class_name": "Zeros", "config": {}}, "kernel_regularizer": null, "bias_regularizer": null, "activity_regularizer": null, "kernel_constraint": null, "bias_constraint": null}, "inbound_nodes": [[["value_head_flatten", 0, 0, {}]]]}, {"name": "policy_head_dense", "class_name": "Dense", "config": {"name": "policy_head_dense", "trainable": true, "dtype": "float32", "units": 362, "activation": "linear", "use_bias": true, "kernel_initializer": {"class_name": "GlorotUniform", "config": {"seed": null}}, "bias_initializer": {"class_name": "Zeros", "config": {}}, "kernel_regularizer": null, "bias_regularizer": null, "activity_regularizer": null, "kernel_constraint": null, "bias_constraint": null}, "inbound_nodes": [[["policy_flatten", 0, 0, {}]]]}, {"name": "value_head_output", "class_name": "Dense", "config": {"name": "value_head_output", "trainable": true, "dtype": "float32", "units": 1, "activation": "tanh", "use_bias": true, "kernel_initializer": {"class_name": "GlorotUniform", "config": {"seed": null}}, "bias_initializer": {"class_name": "Zeros", "config": {}}, "kernel_regularizer": null, "bias_regularizer": null, "activity_regularizer": null, "kernel_constraint": null, "bias_constraint": null}, "inbound_nodes": [[["value_head_dense", 0, 0, {}]]]}], "input_layers": [["input_1", 0, 0]], "output_layers": [["policy_head_dense", 0, 0], ["value_head_output", 0, 0]]}}, "training_config": {"loss": "categorical_crossentropy", "metrics": ["accuracy"], "weighted_metrics": null, "sample_weight_mode": null, "loss_weights": null, "optimizer_config": {"class_name": "Adam", "config": {"name": "Adam", "learning_rate": 0.001, "decay": 0.0, "beta_1": 0.9, "beta_2": 0.999, "epsilon": 1e-07, "amsgrad": false}}}}, "weightsManifest": [{"paths": ["group1-shard1of46.bin", "group1-shard2of46.bin", "group1-shard3of46.bin", "group1-shard4of46.bin", "group1-shard5of46.bin", "group1-shard6of46.bin", "group1-shard7of46.bin", "group1-shard8of46.bin", "group1-shard9of46.bin", "group1-shard10of46.bin", "group1-shard11of46.bin", "group1-shard12of46.bin", "group1-shard13of46.bin", "group1-shard14of46.bin", "group1-shard15of46.bin", "group1-shard16of46.bin", "group1-shard17of46.bin", "group1-shard18of46.bin", "group1-shard19of46.bin", "group1-shard20of46.bin", "group1-shard21of46.bin", "group1-shard22of46.bin", "group1-shard23of46.bin", "group1-shard24of46.bin", "group1-shard25of46.bin", "group1-shard26of46.bin", "group1-shard27of46.bin", "group1-shard28of46.bin", "group1-shard29of46.bin", "group1-shard30of46.bin", "group1-shard31of46.bin", "group1-shard32of46.bin", "group1-shard33of46.bin", "group1-shard34of46.bin", "group1-shard35of46.bin", "group1-shard36of46.bin", "group1-shard37of46.bin", "group1-shard38of46.bin", "group1-shard39of46.bin", "group1-shard40of46.bin", "group1-shard41of46.bin", "group1-shard42of46.bin", "group1-shard43of46.bin", "group1-shard44of46.bin", "group1-shard45of46.bin", "group1-shard46of46.bin"], "weights": [{"name": "init_batch_norm/moving_mean", "shape": [256], "dtype": "float32"}, {"name": "init_batch_norm/moving_variance", "shape": [256], "dtype": "float32"}, {"name": "init_conv_block/kernel", "shape": [3, 3, 18, 256], "dtype": "float32"}, {"name": "init_conv_block/bias", "shape": [256], "dtype": "float32"}, {"name": "policy_head_batch_norm/moving_mean", "shape": [2], "dtype": "float32"}, {"name": "policy_head_batch_norm/moving_variance", "shape": [2], "dtype": "float32"}, {"name": "policy_head_conv_block/kernel", "shape": [1, 1, 256, 2], "dtype": "float32"}, {"name": "policy_head_conv_block/bias", "shape": [2], "dtype": "float32"}, {"name": "policy_head_dense/kernel", "shape": [722, 362], "dtype": "float32"}, {"name": "policy_head_dense/bias", "shape": [362], "dtype": "float32"}, {"name": "residual_1_0_batch_norm/moving_mean", "shape": [256], "dtype": "float32"}, {"name": "residual_1_0_batch_norm/moving_variance", "shape": [256], "dtype": "float32"}, {"name": "residual_1_0_conv_block/kernel", "shape": [3, 3, 256, 256], "dtype": "float32"}, {"name": "residual_1_0_conv_block/bias", "shape": [256], "dtype": "float32"}, {"name": "residual_1_10_batch_norm/moving_mean", "shape": [256], "dtype": "float32"}, {"name": "residual_1_10_batch_norm/moving_variance", "shape": [256], "dtype": "float32"}, {"name": "residual_1_10_conv_block/kernel", "shape": [3, 3, 256, 256], "dtype": "float32"}, {"name": "residual_1_10_conv_block/bias", "shape": [256], "dtype": "float32"}, {"name": "residual_1_11_batch_norm/moving_mean", "shape": [256], "dtype": "float32"}, {"name": "residual_1_11_batch_norm/moving_variance", "shape": [256], "dtype": "float32"}, {"name": "residual_1_11_conv_block/kernel", "shape": [3, 3, 256, 256], "dtype": "float32"}, {"name": "residual_1_11_conv_block/bias", "shape": [256], "dtype": "float32"}, {"name": "residual_1_12_batch_norm/moving_mean", "shape": [256], "dtype": "float32"}, {"name": "residual_1_12_batch_norm/moving_variance", "shape": [256], "dtype": "float32"}, {"name": "residual_1_12_conv_block/kernel", "shape": [3, 3, 256, 256], "dtype": "float32"}, {"name": "residual_1_12_conv_block/bias", "shape": [256], "dtype": "float32"}, {"name": "residual_1_13_batch_norm/moving_mean", "shape": [256], "dtype": "float32"}, {"name": "residual_1_13_batch_norm/moving_variance", "shape": [256], "dtype": "float32"}, {"name": "residual_1_13_conv_block/kernel", "shape": [3, 3, 256, 256], "dtype": "float32"}, {"name": "residual_1_13_conv_block/bias", "shape": [256], "dtype": "float32"}, {"name": "residual_1_14_batch_norm/moving_mean", "shape": [256], "dtype": "float32"}, {"name": "residual_1_14_batch_norm/moving_variance", "shape": [256], "dtype": "float32"}, {"name": "residual_1_14_conv_block/kernel", "shape": [3, 3, 256, 256], "dtype": "float32"}, {"name": "residual_1_14_conv_block/bias", "shape": [256], "dtype": "float32"}, {"name": "residual_1_15_batch_norm/moving_mean", "shape": [256], "dtype": "float32"}, {"name": "residual_1_15_batch_norm/moving_variance", "shape": [256], "dtype": "float32"}, {"name": "residual_1_15_conv_block/kernel", "shape": [3, 3, 256, 256], "dtype": "float32"}, {"name": "residual_1_15_conv_block/bias", "shape": [256], "dtype": "float32"}, {"name": "residual_1_16_batch_norm/moving_mean", "shape": [256], "dtype": "float32"}, {"name": "residual_1_16_batch_norm/moving_variance", "shape": [256], "dtype": "float32"}, {"name": "residual_1_16_conv_block/kernel", "shape": [3, 3, 256, 256], "dtype": "float32"}, {"name": "residual_1_16_conv_block/bias", "shape": [256], "dtype": "float32"}, {"name": "residual_1_17_batch_norm/moving_mean", "shape": [256], "dtype": "float32"}, {"name": "residual_1_17_batch_norm/moving_variance", "shape": [256], "dtype": "float32"}, {"name": "residual_1_17_conv_block/kernel", "shape": [3, 3, 256, 256], "dtype": "float32"}, {"name": "residual_1_17_conv_block/bias", "shape": [256], "dtype": "float32"}, {"name": "residual_1_18_batch_norm/moving_mean", "shape": [256], "dtype": "float32"}, {"name": "residual_1_18_batch_norm/moving_variance", "shape": [256], "dtype": "float32"}, {"name": "residual_1_18_conv_block/kernel", "shape": [3, 3, 256, 256], "dtype": "float32"}, {"name": "residual_1_18_conv_block/bias", "shape": [256], "dtype": "float32"}, {"name": "residual_1_19_batch_norm/moving_mean", "shape": [256], "dtype": "float32"}, {"name": "residual_1_19_batch_norm/moving_variance", "shape": [256], "dtype": "float32"}, {"name": "residual_1_19_conv_block/kernel", "shape": [3, 3, 256, 256], "dtype": "float32"}, {"name": "residual_1_19_conv_block/bias", "shape": [256], "dtype": "float32"}, {"name": "residual_1_1_batch_norm/moving_mean", "shape": [256], "dtype": "float32"}, {"name": "residual_1_1_batch_norm/moving_variance", "shape": [256], "dtype": "float32"}, {"name": "residual_1_1_conv_block/kernel", "shape": [3, 3, 256, 256], "dtype": "float32"}, {"name": "residual_1_1_conv_block/bias", "shape": [256], "dtype": "float32"}, {"name": "residual_1_20_batch_norm/moving_mean", "shape": [256], "dtype": "float32"}, {"name": "residual_1_20_batch_norm/moving_variance", "shape": [256], "dtype": "float32"}, {"name": "residual_1_20_conv_block/kernel", "shape": [3, 3, 256, 256], "dtype": "float32"}, {"name": "residual_1_20_conv_block/bias", "shape": [256], "dtype": "float32"}, {"name": "residual_1_21_batch_norm/moving_mean", "shape": [256], "dtype": "float32"}, {"name": "residual_1_21_batch_norm/moving_variance", "shape": [256], "dtype": "float32"}, {"name": "residual_1_21_conv_block/kernel", "shape": [3, 3, 256, 256], "dtype": "float32"}, {"name": "residual_1_21_conv_block/bias", "shape": [256], "dtype": "float32"}, {"name": "residual_1_22_batch_norm/moving_mean", "shape": [256], "dtype": "float32"}, {"name": "residual_1_22_batch_norm/moving_variance", "shape": [256], "dtype": "float32"}, {"name": "residual_1_22_conv_block/kernel", "shape": [3, 3, 256, 256], "dtype": "float32"}, {"name": "residual_1_22_conv_block/bias", "shape": [256], "dtype": "float32"}, {"name": "residual_1_23_batch_norm/moving_mean", "shape": [256], "dtype": "float32"}, {"name": "residual_1_23_batch_norm/moving_variance", "shape": [256], "dtype": "float32"}, {"name": "residual_1_23_conv_block/kernel", "shape": [3, 3, 256, 256], "dtype": "float32"}, {"name": "residual_1_23_conv_block/bias", "shape": [256], "dtype": "float32"}, {"name": "residual_1_24_batch_norm/moving_mean", "shape": [256], "dtype": "float32"}, {"name": "residual_1_24_batch_norm/moving_variance", "shape": [256], "dtype": "float32"}, {"name": "residual_1_24_conv_block/kernel", "shape": [3, 3, 256, 256], "dtype": "float32"}, {"name": "residual_1_24_conv_block/bias", "shape": [256], "dtype": "float32"}, {"name": "residual_1_25_batch_norm/moving_mean", "shape": [256], "dtype": "float32"}, {"name": "residual_1_25_batch_norm/moving_variance", "shape": [256], "dtype": "float32"}, {"name": "residual_1_25_conv_block/kernel", "shape": [3, 3, 256, 256], "dtype": "float32"}, {"name": "residual_1_25_conv_block/bias", "shape": [256], "dtype": "float32"}, {"name": "residual_1_26_batch_norm/moving_mean", "shape": [256], "dtype": "float32"}, {"name": "residual_1_26_batch_norm/moving_variance", "shape": [256], "dtype": "float32"}, {"name": "residual_1_26_conv_block/kernel", "shape": [3, 3, 256, 256], "dtype": "float32"}, {"name": "residual_1_26_conv_block/bias", "shape": [256], "dtype": "float32"}, {"name": "residual_1_27_batch_norm/moving_mean", "shape": [256], "dtype": "float32"}, {"name": "residual_1_27_batch_norm/moving_variance", "shape": [256], "dtype": "float32"}, {"name": "residual_1_27_conv_block/kernel", "shape": [3, 3, 256, 256], "dtype": "float32"}, {"name": "residual_1_27_conv_block/bias", "shape": [256], "dtype": "float32"}, {"name": "residual_1_28_batch_norm/moving_mean", "shape": [256], "dtype": "float32"}, {"name": "residual_1_28_batch_norm/moving_variance", "shape": [256], "dtype": "float32"}, {"name": "residual_1_28_conv_block/kernel", "shape": [3, 3, 256, 256], "dtype": "float32"}, {"name": "residual_1_28_conv_block/bias", "shape": [256], "dtype": "float32"}, {"name": "residual_1_29_batch_norm/moving_mean", "shape": [256], "dtype": "float32"}, {"name": "residual_1_29_batch_norm/moving_variance", "shape": [256], "dtype": "float32"}, {"name": "residual_1_29_conv_block/kernel", "shape": [3, 3, 256, 256], "dtype": "float32"}, {"name": "residual_1_29_conv_block/bias", "shape": [256], "dtype": "float32"}, {"name": "residual_1_2_batch_norm/moving_mean", "shape": [256], "dtype": "float32"}, {"name": "residual_1_2_batch_norm/moving_variance", "shape": [256], "dtype": "float32"}, {"name": "residual_1_2_conv_block/kernel", "shape": [3, 3, 256, 256], "dtype": "float32"}, {"name": "residual_1_2_conv_block/bias", "shape": [256], "dtype": "float32"}, {"name": "residual_1_30_batch_norm/moving_mean", "shape": [256], "dtype": "float32"}, {"name": "residual_1_30_batch_norm/moving_variance", "shape": [256], "dtype": "float32"}, {"name": "residual_1_30_conv_block/kernel", "shape": [3, 3, 256, 256], "dtype": "float32"}, {"name": "residual_1_30_conv_block/bias", "shape": [256], "dtype": "float32"}, {"name": "residual_1_31_batch_norm/moving_mean", "shape": [256], "dtype": "float32"}, {"name": "residual_1_31_batch_norm/moving_variance", "shape": [256], "dtype": "float32"}, {"name": "residual_1_31_conv_block/kernel", "shape": [3, 3, 256, 256], "dtype": "float32"}, {"name": "residual_1_31_conv_block/bias", "shape": [256], "dtype": "float32"}, {"name": "residual_1_32_batch_norm/moving_mean", "shape": [256], "dtype": "float32"}, {"name": "residual_1_32_batch_norm/moving_variance", "shape": [256], "dtype": "float32"}, {"name": "residual_1_32_conv_block/kernel", "shape": [3, 3, 256, 256], "dtype": "float32"}, {"name": "residual_1_32_conv_block/bias", "shape": [256], "dtype": "float32"}, {"name": "residual_1_33_batch_norm/moving_mean", "shape": [256], "dtype": "float32"}, {"name": "residual_1_33_batch_norm/moving_variance", "shape": [256], "dtype": "float32"}, {"name": "residual_1_33_conv_block/kernel", "shape": [3, 3, 256, 256], "dtype": "float32"}, {"name": "residual_1_33_conv_block/bias", "shape": [256], "dtype": "float32"}, {"name": "residual_1_34_batch_norm/moving_mean", "shape": [256], "dtype": "float32"}, {"name": "residual_1_34_batch_norm/moving_variance", "shape": [256], "dtype": "float32"}, {"name": "residual_1_34_conv_block/kernel", "shape": [3, 3, 256, 256], "dtype": "float32"}, {"name": "residual_1_34_conv_block/bias", "shape": [256], "dtype": "float32"}, {"name": "residual_1_35_batch_norm/moving_mean", "shape": [256], "dtype": "float32"}, {"name": "residual_1_35_batch_norm/moving_variance", "shape": [256], "dtype": "float32"}, {"name": "residual_1_35_conv_block/kernel", "shape": [3, 3, 256, 256], "dtype": "float32"}, {"name": "residual_1_35_conv_block/bias", "shape": [256], "dtype": "float32"}, {"name": "residual_1_36_batch_norm/moving_mean", "shape": [256], "dtype": "float32"}, {"name": "residual_1_36_batch_norm/moving_variance", "shape": [256], "dtype": "float32"}, {"name": "residual_1_36_conv_block/kernel", "shape": [3, 3, 256, 256], "dtype": "float32"}, {"name": "residual_1_36_conv_block/bias", "shape": [256], "dtype": "float32"}, {"name": "residual_1_37_batch_norm/moving_mean", "shape": [256], "dtype": "float32"}, {"name": "residual_1_37_batch_norm/moving_variance", "shape": [256], "dtype": "float32"}, {"name": "residual_1_37_conv_block/kernel", "shape": [3, 3, 256, 256], "dtype": "float32"}, {"name": "residual_1_37_conv_block/bias", "shape": [256], "dtype": "float32"}, {"name": "residual_1_38_batch_norm/moving_mean", "shape": [256], "dtype": "float32"}, {"name": "residual_1_38_batch_norm/moving_variance", "shape": [256], "dtype": "float32"}, {"name": "residual_1_38_conv_block/kernel", "shape": [3, 3, 256, 256], "dtype": "float32"}, {"name": "residual_1_38_conv_block/bias", "shape": [256], "dtype": "float32"}, {"name": "residual_1_39_batch_norm/moving_mean", "shape": [256], "dtype": "float32"}, {"name": "residual_1_39_batch_norm/moving_variance", "shape": [256], "dtype": "float32"}, {"name": "residual_1_39_conv_block/kernel", "shape": [3, 3, 256, 256], "dtype": "float32"}, {"name": "residual_1_39_conv_block/bias", "shape": [256], "dtype": "float32"}, {"name": "residual_1_3_batch_norm/moving_mean", "shape": [256], "dtype": "float32"}, {"name": "residual_1_3_batch_norm/moving_variance", "shape": [256], "dtype": "float32"}, {"name": "residual_1_3_conv_block/kernel", "shape": [3, 3, 256, 256], "dtype": "float32"}, {"name": "residual_1_3_conv_block/bias", "shape": [256], "dtype": "float32"}, {"name": "residual_1_4_batch_norm/moving_mean", "shape": [256], "dtype": "float32"}, {"name": "residual_1_4_batch_norm/moving_variance", "shape": [256], "dtype": "float32"}, {"name": "residual_1_4_conv_block/kernel", "shape": [3, 3, 256, 256], "dtype": "float32"}, {"name": "residual_1_4_conv_block/bias", "shape": [256], "dtype": "float32"}, {"name": "residual_1_5_batch_norm/moving_mean", "shape": [256], "dtype": "float32"}, {"name": "residual_1_5_batch_norm/moving_variance", "shape": [256], "dtype": "float32"}, {"name": "residual_1_5_conv_block/kernel", "shape": [3, 3, 256, 256], "dtype": "float32"}, {"name": "residual_1_5_conv_block/bias", "shape": [256], "dtype": "float32"}, {"name": "residual_1_6_batch_norm/moving_mean", "shape": [256], "dtype": "float32"}, {"name": "residual_1_6_batch_norm/moving_variance", "shape": [256], "dtype": "float32"}, {"name": "residual_1_6_conv_block/kernel", "shape": [3, 3, 256, 256], "dtype": "float32"}, {"name": "residual_1_6_conv_block/bias", "shape": [256], "dtype": "float32"}, {"name": "residual_1_7_batch_norm/moving_mean", "shape": [256], "dtype": "float32"}, {"name": "residual_1_7_batch_norm/moving_variance", "shape": [256], "dtype": "float32"}, {"name": "residual_1_7_conv_block/kernel", "shape": [3, 3, 256, 256], "dtype": "float32"}, {"name": "residual_1_7_conv_block/bias", "shape": [256], "dtype": "float32"}, {"name": "residual_1_8_batch_norm/moving_mean", "shape": [256], "dtype": "float32"}, {"name": "residual_1_8_batch_norm/moving_variance", "shape": [256], "dtype": "float32"}, {"name": "residual_1_8_conv_block/kernel", "shape": [3, 3, 256, 256], "dtype": "float32"}, {"name": "residual_1_8_conv_block/bias", "shape": [256], "dtype": "float32"}, {"name": "residual_1_9_batch_norm/moving_mean", "shape": [256], "dtype": "float32"}, {"name": "residual_1_9_batch_norm/moving_variance", "shape": [256], "dtype": "float32"}, {"name": "residual_1_9_conv_block/kernel", "shape": [3, 3, 256, 256], "dtype": "float32"}, {"name": "residual_1_9_conv_block/bias", "shape": [256], "dtype": "float32"}, {"name": "residual_2_0_batch_norm/moving_mean", "shape": [256], "dtype": "float32"}, {"name": "residual_2_0_batch_norm/moving_variance", "shape": [256], "dtype": "float32"}, {"name": "residual_2_0_conv_block/kernel", "shape": [3, 3, 256, 256], "dtype": "float32"}, {"name": "residual_2_0_conv_block/bias", "shape": [256], "dtype": "float32"}, {"name": "residual_2_10_batch_norm/moving_mean", "shape": [256], "dtype": "float32"}, {"name": "residual_2_10_batch_norm/moving_variance", "shape": [256], "dtype": "float32"}, {"name": "residual_2_10_conv_block/kernel", "shape": [3, 3, 256, 256], "dtype": "float32"}, {"name": "residual_2_10_conv_block/bias", "shape": [256], "dtype": "float32"}, {"name": "residual_2_11_batch_norm/moving_mean", "shape": [256], "dtype": "float32"}, {"name": "residual_2_11_batch_norm/moving_variance", "shape": [256], "dtype": "float32"}, {"name": "residual_2_11_conv_block/kernel", "shape": [3, 3, 256, 256], "dtype": "float32"}, {"name": "residual_2_11_conv_block/bias", "shape": [256], "dtype": "float32"}, {"name": "residual_2_12_batch_norm/moving_mean", "shape": [256], "dtype": "float32"}, {"name": "residual_2_12_batch_norm/moving_variance", "shape": [256], "dtype": "float32"}, {"name": "residual_2_12_conv_block/kernel", "shape": [3, 3, 256, 256], "dtype": "float32"}, {"name": "residual_2_12_conv_block/bias", "shape": [256], "dtype": "float32"}, {"name": "residual_2_13_batch_norm/moving_mean", "shape": [256], "dtype": "float32"}, {"name": "residual_2_13_batch_norm/moving_variance", "shape": [256], "dtype": "float32"}, {"name": "residual_2_13_conv_block/kernel", "shape": [3, 3, 256, 256], "dtype": "float32"}, {"name": "residual_2_13_conv_block/bias", "shape": [256], "dtype": "float32"}, {"name": "residual_2_14_batch_norm/moving_mean", "shape": [256], "dtype": "float32"}, {"name": "residual_2_14_batch_norm/moving_variance", "shape": [256], "dtype": "float32"}, {"name": "residual_2_14_conv_block/kernel", "shape": [3, 3, 256, 256], "dtype": "float32"}, {"name": "residual_2_14_conv_block/bias", "shape": [256], "dtype": "float32"}, {"name": "residual_2_15_batch_norm/moving_mean", "shape": [256], "dtype": "float32"}, {"name": "residual_2_15_batch_norm/moving_variance", "shape": [256], "dtype": "float32"}, {"name": "residual_2_15_conv_block/kernel", "shape": [3, 3, 256, 256], "dtype": "float32"}, {"name": "residual_2_15_conv_block/bias", "shape": [256], "dtype": "float32"}, {"name": "residual_2_16_batch_norm/moving_mean", "shape": [256], "dtype": "float32"}, {"name": "residual_2_16_batch_norm/moving_variance", "shape": [256], "dtype": "float32"}, {"name": "residual_2_16_conv_block/kernel", "shape": [3, 3, 256, 256], "dtype": "float32"}, {"name": "residual_2_16_conv_block/bias", "shape": [256], "dtype": "float32"}, {"name": "residual_2_17_batch_norm/moving_mean", "shape": [256], "dtype": "float32"}, {"name": "residual_2_17_batch_norm/moving_variance", "shape": [256], "dtype": "float32"}, {"name": "residual_2_17_conv_block/kernel", "shape": [3, 3, 256, 256], "dtype": "float32"}, {"name": "residual_2_17_conv_block/bias", "shape": [256], "dtype": "float32"}, {"name": "residual_2_18_batch_norm/moving_mean", "shape": [256], "dtype": "float32"}, {"name": "residual_2_18_batch_norm/moving_variance", "shape": [256], "dtype": "float32"}, {"name": "residual_2_18_conv_block/kernel", "shape": [3, 3, 256, 256], "dtype": "float32"}, {"name": "residual_2_18_conv_block/bias", "shape": [256], "dtype": "float32"}, {"name": "residual_2_19_batch_norm/moving_mean", "shape": [256], "dtype": "float32"}, {"name": "residual_2_19_batch_norm/moving_variance", "shape": [256], "dtype": "float32"}, {"name": "residual_2_19_conv_block/kernel", "shape": [3, 3, 256, 256], "dtype": "float32"}, {"name": "residual_2_19_conv_block/bias", "shape": [256], "dtype": "float32"}, {"name": "residual_2_1_batch_norm/moving_mean", "shape": [256], "dtype": "float32"}, {"name": "residual_2_1_batch_norm/moving_variance", "shape": [256], "dtype": "float32"}, {"name": "residual_2_1_conv_block/kernel", "shape": [3, 3, 256, 256], "dtype": "float32"}, {"name": "residual_2_1_conv_block/bias", "shape": [256], "dtype": "float32"}, {"name": "residual_2_20_batch_norm/moving_mean", "shape": [256], "dtype": "float32"}, {"name": "residual_2_20_batch_norm/moving_variance", "shape": [256], "dtype": "float32"}, {"name": "residual_2_20_conv_block/kernel", "shape": [3, 3, 256, 256], "dtype": "float32"}, {"name": "residual_2_20_conv_block/bias", "shape": [256], "dtype": "float32"}, {"name": "residual_2_21_batch_norm/moving_mean", "shape": [256], "dtype": "float32"}, {"name": "residual_2_21_batch_norm/moving_variance", "shape": [256], "dtype": "float32"}, {"name": "residual_2_21_conv_block/kernel", "shape": [3, 3, 256, 256], "dtype": "float32"}, {"name": "residual_2_21_conv_block/bias", "shape": [256], "dtype": "float32"}, {"name": "residual_2_22_batch_norm/moving_mean", "shape": [256], "dtype": "float32"}, {"name": "residual_2_22_batch_norm/moving_variance", "shape": [256], "dtype": "float32"}, {"name": "residual_2_22_conv_block/kernel", "shape": [3, 3, 256, 256], "dtype": "float32"}, {"name": "residual_2_22_conv_block/bias", "shape": [256], "dtype": "float32"}, {"name": "residual_2_23_batch_norm/moving_mean", "shape": [256], "dtype": "float32"}, {"name": "residual_2_23_batch_norm/moving_variance", "shape": [256], "dtype": "float32"}, {"name": "residual_2_23_conv_block/kernel", "shape": [3, 3, 256, 256], "dtype": "float32"}, {"name": "residual_2_23_conv_block/bias", "shape": [256], "dtype": "float32"}, {"name": "residual_2_24_batch_norm/moving_mean", "shape": [256], "dtype": "float32"}, {"name": "residual_2_24_batch_norm/moving_variance", "shape": [256], "dtype": "float32"}, {"name": "residual_2_24_conv_block/kernel", "shape": [3, 3, 256, 256], "dtype": "float32"}, {"name": "residual_2_24_conv_block/bias", "shape": [256], "dtype": "float32"}, {"name": "residual_2_25_batch_norm/moving_mean", "shape": [256], "dtype": "float32"}, {"name": "residual_2_25_batch_norm/moving_variance", "shape": [256], "dtype": "float32"}, {"name": "residual_2_25_conv_block/kernel", "shape": [3, 3, 256, 256], "dtype": "float32"}, {"name": "residual_2_25_conv_block/bias", "shape": [256], "dtype": "float32"}, {"name": "residual_2_26_batch_norm/moving_mean", "shape": [256], "dtype": "float32"}, {"name": "residual_2_26_batch_norm/moving_variance", "shape": [256], "dtype": "float32"}, {"name": "residual_2_26_conv_block/kernel", "shape": [3, 3, 256, 256], "dtype": "float32"}, {"name": "residual_2_26_conv_block/bias", "shape": [256], "dtype": "float32"}, {"name": "residual_2_27_batch_norm/moving_mean", "shape": [256], "dtype": "float32"}, {"name": "residual_2_27_batch_norm/moving_variance", "shape": [256], "dtype": "float32"}, {"name": "residual_2_27_conv_block/kernel", "shape": [3, 3, 256, 256], "dtype": "float32"}, {"name": "residual_2_27_conv_block/bias", "shape": [256], "dtype": "float32"}, {"name": "residual_2_28_batch_norm/moving_mean", "shape": [256], "dtype": "float32"}, {"name": "residual_2_28_batch_norm/moving_variance", "shape": [256], "dtype": "float32"}, {"name": "residual_2_28_conv_block/kernel", "shape": [3, 3, 256, 256], "dtype": "float32"}, {"name": "residual_2_28_conv_block/bias", "shape": [256], "dtype": "float32"}, {"name": "residual_2_29_batch_norm/moving_mean", "shape": [256], "dtype": "float32"}, {"name": "residual_2_29_batch_norm/moving_variance", "shape": [256], "dtype": "float32"}, {"name": "residual_2_29_conv_block/kernel", "shape": [3, 3, 256, 256], "dtype": "float32"}, {"name": "residual_2_29_conv_block/bias", "shape": [256], "dtype": "float32"}, {"name": "residual_2_2_batch_norm/moving_mean", "shape": [256], "dtype": "float32"}, {"name": "residual_2_2_batch_norm/moving_variance", "shape": [256], "dtype": "float32"}, {"name": "residual_2_2_conv_block/kernel", "shape": [3, 3, 256, 256], "dtype": "float32"}, {"name": "residual_2_2_conv_block/bias", "shape": [256], "dtype": "float32"}, {"name": "residual_2_30_batch_norm/moving_mean", "shape": [256], "dtype": "float32"}, {"name": "residual_2_30_batch_norm/moving_variance", "shape": [256], "dtype": "float32"}, {"name": "residual_2_30_conv_block/kernel", "shape": [3, 3, 256, 256], "dtype": "float32"}, {"name": "residual_2_30_conv_block/bias", "shape": [256], "dtype": "float32"}, {"name": "residual_2_31_batch_norm/moving_mean", "shape": [256], "dtype": "float32"}, {"name": "residual_2_31_batch_norm/moving_variance", "shape": [256], "dtype": "float32"}, {"name": "residual_2_31_conv_block/kernel", "shape": [3, 3, 256, 256], "dtype": "float32"}, {"name": "residual_2_31_conv_block/bias", "shape": [256], "dtype": "float32"}, {"name": "residual_2_32_batch_norm/moving_mean", "shape": [256], "dtype": "float32"}, {"name": "residual_2_32_batch_norm/moving_variance", "shape": [256], "dtype": "float32"}, {"name": "residual_2_32_conv_block/kernel", "shape": [3, 3, 256, 256], "dtype": "float32"}, {"name": "residual_2_32_conv_block/bias", "shape": [256], "dtype": "float32"}, {"name": "residual_2_33_batch_norm/moving_mean", "shape": [256], "dtype": "float32"}, {"name": "residual_2_33_batch_norm/moving_variance", "shape": [256], "dtype": "float32"}, {"name": "residual_2_33_conv_block/kernel", "shape": [3, 3, 256, 256], "dtype": "float32"}, {"name": "residual_2_33_conv_block/bias", "shape": [256], "dtype": "float32"}, {"name": "residual_2_34_batch_norm/moving_mean", "shape": [256], "dtype": "float32"}, {"name": "residual_2_34_batch_norm/moving_variance", "shape": [256], "dtype": "float32"}, {"name": "residual_2_34_conv_block/kernel", "shape": [3, 3, 256, 256], "dtype": "float32"}, {"name": "residual_2_34_conv_block/bias", "shape": [256], "dtype": "float32"}, {"name": "residual_2_35_batch_norm/moving_mean", "shape": [256], "dtype": "float32"}, {"name": "residual_2_35_batch_norm/moving_variance", "shape": [256], "dtype": "float32"}, {"name": "residual_2_35_conv_block/kernel", "shape": [3, 3, 256, 256], "dtype": "float32"}, {"name": "residual_2_35_conv_block/bias", "shape": [256], "dtype": "float32"}, {"name": "residual_2_36_batch_norm/moving_mean", "shape": [256], "dtype": "float32"}, {"name": "residual_2_36_batch_norm/moving_variance", "shape": [256], "dtype": "float32"}, {"name": "residual_2_36_conv_block/kernel", "shape": [3, 3, 256, 256], "dtype": "float32"}, {"name": "residual_2_36_conv_block/bias", "shape": [256], "dtype": "float32"}, {"name": "residual_2_37_batch_norm/moving_mean", "shape": [256], "dtype": "float32"}, {"name": "residual_2_37_batch_norm/moving_variance", "shape": [256], "dtype": "float32"}, {"name": "residual_2_37_conv_block/kernel", "shape": [3, 3, 256, 256], "dtype": "float32"}, {"name": "residual_2_37_conv_block/bias", "shape": [256], "dtype": "float32"}, {"name": "residual_2_38_batch_norm/moving_mean", "shape": [256], "dtype": "float32"}, {"name": "residual_2_38_batch_norm/moving_variance", "shape": [256], "dtype": "float32"}, {"name": "residual_2_38_conv_block/kernel", "shape": [3, 3, 256, 256], "dtype": "float32"}, {"name": "residual_2_38_conv_block/bias", "shape": [256], "dtype": "float32"}, {"name": "residual_2_39_batch_norm/moving_mean", "shape": [256], "dtype": "float32"}, {"name": "residual_2_39_batch_norm/moving_variance", "shape": [256], "dtype": "float32"}, {"name": "residual_2_39_conv_block/kernel", "shape": [3, 3, 256, 256], "dtype": "float32"}, {"name": "residual_2_39_conv_block/bias", "shape": [256], "dtype": "float32"}, {"name": "residual_2_3_batch_norm/moving_mean", "shape": [256], "dtype": "float32"}, {"name": "residual_2_3_batch_norm/moving_variance", "shape": [256], "dtype": "float32"}, {"name": "residual_2_3_conv_block/kernel", "shape": [3, 3, 256, 256], "dtype": "float32"}, {"name": "residual_2_3_conv_block/bias", "shape": [256], "dtype": "float32"}, {"name": "residual_2_4_batch_norm/moving_mean", "shape": [256], "dtype": "float32"}, {"name": "residual_2_4_batch_norm/moving_variance", "shape": [256], "dtype": "float32"}, {"name": "residual_2_4_conv_block/kernel", "shape": [3, 3, 256, 256], "dtype": "float32"}, {"name": "residual_2_4_conv_block/bias", "shape": [256], "dtype": "float32"}, {"name": "residual_2_5_batch_norm/moving_mean", "shape": [256], "dtype": "float32"}, {"name": "residual_2_5_batch_norm/moving_variance", "shape": [256], "dtype": "float32"}, {"name": "residual_2_5_conv_block/kernel", "shape": [3, 3, 256, 256], "dtype": "float32"}, {"name": "residual_2_5_conv_block/bias", "shape": [256], "dtype": "float32"}, {"name": "residual_2_6_batch_norm/moving_mean", "shape": [256], "dtype": "float32"}, {"name": "residual_2_6_batch_norm/moving_variance", "shape": [256], "dtype": "float32"}, {"name": "residual_2_6_conv_block/kernel", "shape": [3, 3, 256, 256], "dtype": "float32"}, {"name": "residual_2_6_conv_block/bias", "shape": [256], "dtype": "float32"}, {"name": "residual_2_7_batch_norm/moving_mean", "shape": [256], "dtype": "float32"}, {"name": "residual_2_7_batch_norm/moving_variance", "shape": [256], "dtype": "float32"}, {"name": "residual_2_7_conv_block/kernel", "shape": [3, 3, 256, 256], "dtype": "float32"}, {"name": "residual_2_7_conv_block/bias", "shape": [256], "dtype": "float32"}, {"name": "residual_2_8_batch_norm/moving_mean", "shape": [256], "dtype": "float32"}, {"name": "residual_2_8_batch_norm/moving_variance", "shape": [256], "dtype": "float32"}, {"name": "residual_2_8_conv_block/kernel", "shape": [3, 3, 256, 256], "dtype": "float32"}, {"name": "residual_2_8_conv_block/bias", "shape": [256], "dtype": "float32"}, {"name": "residual_2_9_batch_norm/moving_mean", "shape": [256], "dtype": "float32"}, {"name": "residual_2_9_batch_norm/moving_variance", "shape": [256], "dtype": "float32"}, {"name": "residual_2_9_conv_block/kernel", "shape": [3, 3, 256, 256], "dtype": "float32"}, {"name": "residual_2_9_conv_block/bias", "shape": [256], "dtype": "float32"}, {"name": "value_head_batch_norm/moving_mean", "shape": [1], "dtype": "float32"}, {"name": "value_head_batch_norm/moving_variance", "shape": [1], "dtype": "float32"}, {"name": "value_head_conv_block/kernel", "shape": [1, 1, 256, 1], "dtype": "float32"}, {"name": "value_head_conv_block/bias", "shape": [1], "dtype": "float32"}, {"name": "value_head_dense/kernel", "shape": [361, 256], "dtype": "float32"}, {"name": "value_head_dense/bias", "shape": [256], "dtype": "float32"}, {"name": "value_head_output/kernel", "shape": [256, 1], "dtype": "float32"}, {"name": "value_head_output/bias", "shape": [1], "dtype": "float32"}]}]}